checkpoint_actor.pth (torch, 159506 bytes, 10 tensors)

fc1.weight f4 [128, 33]
000000 c4 ef a9 3e 1c 73 2c 3e ce 55 b6 bd 2f 7b 92 be
       0.3319074 0.16840786 -0.08903085 -0.28609607
000010 93 ca 75 3e 4f ad b9 3e 2d a4 2f 3d 11 40 1d bd
       0.24003057 0.36265036 0.04288118 -0.038391177
000020 b1 b4 79 3e c6 09 28 3e ee 61 9b bc 04 85 21 3d
       0.24385335 0.16409978 -0.018967595 0.039433494
000030 59 e8 6f 3d 3b fe c7 3d 30 35 e5 bc dd e7 84 3e
       0.058571193 0.097652875 -0.027979463 0.25958148
000040 b4 62 2d bd 3a 61 1d 3d 8d da f6 bc d5 58 d9 3c
       -0.04233046 0.0384228 -0.03013351 0.026531616
000050 39 7a 4a bc 38 bd 33 bd 77 66 a6 bb 78 06 23 3e
       -0.012358242 -0.043881625 -0.0050781327 0.15920436
000060 c2 e6 58 3e 30 d5 8d 3c 0c 08 4b 3d 70 3d c6 3c
       0.21181777 0.01731357 0.04956822 0.024199218
000070 77 2e ff bd 4d 8c 79 3d d6 45 3a 3d 22 da fa bc
       -0.12460034 0.060924817 0.045476757 -0.030621592
000080 47 e0 b1 be 79 09 af bd 8e a0 76 bd fd 30 52 be
       -0.34741423 -0.08546729 -0.06021171 -0.205265
000090 06 8f 9e bc a5 89 ad 3d 8e fc 5f 3e 13 f6 89 3d
       -0.019355308 0.08473519 0.21873686 0.06736388
0000a0 77 23 33 bc ff e4 5a 3e 40 3e 3f be d3 95 9e bd
       -0.010933748 0.21376418 -0.1867609 -0.077434205
0000b0 98 9d c1 3d 5f af 8f bd 3e 9b 90 ba 14 21 da 3e
       0.09453887 -0.07015871 -0.0011032594 0.42603362
0000c0 b9 83 63 3e f4 92 8d bd cd 25 0b 3d 77 a5 8f 3c
       0.22218217 -0.06912795 0.033971597 0.017534954
0000d0 f6 99 90 3d e9 88 39 bc d4 17 0c bd 7c d1 36 bb
       0.07060616 -0.011324146 -0.03420241 -0.0027895859
0000e0 30 5f ea bc d3 36 39 bd 41 2f 8e 3d e9 23 17 be
       -0.028609842 -0.0452183 0.06942607 -0.14759792
0000f0 78 e0 c7 ba 13 09 80 bd 23 57 98 3d 55 48 e4 bb
       -0.0015249392 -0.06251731 0.07438495 -0.0069666305
000100 f3 86 ae 3d 19 c0 f8 be 35 82 7a be 78 b0 17 3c
       0.08521833 -0.4858406 -0.24463733 0.009258382
000110 37 81 0d be 63 8e a8 3d c3 54 28 3c c0 7b c4 bd
       -0.13818823 0.08230283 0.010274115 -0.09593916
000120 b7 10 17 3d 52 20 6f 3d 85 29 b7 3e 30 54 24 3e
       0.036881175 0.058380432 0.35773864 0.1604774
000130 05 2e e8 bb 56 95 00 3d 6e 60 26 3e 99 43 47 3e
       -0.007085564 0.031392418 0.16247723 0.1945938
000140 df 24 82 3e 3f 5c 99 bd c2 2b 48 bd 0c e6 40 bc
       0.25418755 -0.07488298 -0.048869856 -0.011773597
000150 7e a2 31 bd eb 4e 82 bc db 8b da 3d e3 8b ad bd
       -0.043367855 -0.015906772 0.106712066 -0.08473947
000160 6e 14 15 be 7a 8b 5b 3c 15 66 43 3c 88 5f aa bd
       -0.14558575 0.013399953 0.011926194 -0.083190024
000170 e9 25 48 3c a5 91 6f bc d9 e4 3c 3e 60 92 9c 3d
       0.01221607 -0.014622127 0.18446673 0.07645106
000180 aa 80 8b bd 96 d5 71 bd f4 71 08 bf fb 57 64 bd
       -0.0681165 -0.059041582 -0.5329888 -0.055747967
000190 f4 4c 03 bf 55 0b a9 bd 33 b6 a3 3d a2 29 fc 3d
       -0.51289296 -0.082541145 0.07993736 0.12312628
0001a0 d3 52 3c 3d 65 31 c4 3b e7 f0 63 3d 67 40 d0 bd
       0.045977425 0.0059873336 0.055649664 -0.10168534
0001b0 1d 53 6b 3d b4 6a 27 bd d0 a1 f6 3c 3b 03 95 bb
       0.05745231 -0.040873244 0.030106455 -0.0045475042
0001c0 d7 57 21 3e a3 2f e9 3e a2 c2 e0 3d 78 f3 66 bc
       0.15756164 0.45544156 0.10974623 -0.014096133
0001d0 20 75 f7 3b a1 5d 00 3c 6c 08 17 ba 4e 6f 0f bd
       0.007551804 0.007834823 -0.0005761448 -0.035018258
0001e0 4e 6e 21 3b 65 9a e0 3b 40 7a 09 3b 96 c7 29 3c
       0.0024632397 0.0068543428 0.0020977408 0.010362526
0001f0 b7 bb 0b 3d 5a bf 14 be 04 8b 16 3c 74 56 d9 3c
       0.034114566 -0.1452612 0.009188417 0.026530482
000200 92 8a 24 3c cd 6f 9c bd 38 94 bf 3a b6 f6 11 be
       0.010042803 -0.07638512 0.0014616316 -0.14254269
000210 32 12 63 be 92 cb 10 bd e8 7e 0c be 8e 77 bc bc
       -0.2217491 -0.03535039 -0.13720286 -0.023006227
000220 3e 5f af bd 1d f7 28 3d 8a d3 96 bd 79 8b 21 3d
       -0.08563088 0.04125129 -0.073645666 0.039439652
000230 23 41 43 3e a9 37 eb bd 80 b4 0f 3d 53 26 94 bc
       0.19067816 -0.11485226 0.035084248 -0.01808468
000240 91 dc 11 bd 64 ea 83 bd 8b ed 19 3d a7 5f 49 3b
       -0.03561074 -0.06441191 0.037580054 0.003072718
000250 7c 12 e0 3d f6 58 a9 bb c1 55 39 bd 80 2b b4 39
       0.109410256 -0.0051680757 -0.045247797 0.00034364685
000260 76 ce bc 3b 64 f1 1e bd 43 c0 14 3c cd 08 31 be
       0.0057619167 -0.038804427 0.009079042 -0.17288513
000270 4f a4 82 3c f9 d7 cf bd 9c 25 2f 3d 0b 5e dc bc
       0.015947489 -0.101486154 0.042760476 -0.026900312
000280 3e 1b 46 3e fd 5f 84 bd de b8 14 bd 1e e9 bf 3c
       0.1934633 -0.06463621 -0.036309116 0.023426589
000290 40 23 38 3f d7 eb b4 bd f0 08 56 be c8 c9 47 be
       0.7192879 -0.088340454 -0.20901847 -0.19510567
0002a0 77 87 a9 3d 0a ac 6d bd 77 14 27 bd ba a7 5e be
       0.08277791 -0.058025397 -0.040791 -0.2174367
0002b0 4b 90 45 3e 4e a0 60 3e 56 b5 25 3e ec 7a d3 bd
       0.19293325 0.21936151 0.16182455 -0.1032618
0002c0 1f 9a 1e bd 89 74 05 be 0d fe a2 bd 5f 48 77 bd
       -0.0387212 -0.13032736 -0.079586126 -0.060371753
0002d0 d8 4b 05 bd 06 14 9d bd 7a 97 03 bc c1 e2 ca bd
       -0.032543033 -0.07669835 -0.00803172 -0.09906531
0002e0 82 4f 88 3d 75 cc 5b 3d f9 02 01 be ed a3 2f be
       0.0665579 0.053661782 -0.1259879 -0.17152376
0002f0 cf 3c 10 3e a9 13 6d be 01 8b 8c bd 46 c2 e7 bd
       0.14085697 -0.23152031 -0.068624504 -0.113163516
000300 38 2a 5e 3c 75 48 d4 bd da 2a 9d bd 95 74 83 bd
       0.01355987 -0.103653826 -0.07674189 -0.06418721
000310 95 7c d7 3b ac 01 41 3f 44 ff c0 be 57 37 e9 bc
       0.0065761306 0.75393176 -0.37694752 -0.02846877
000320 c8 47 b0 3e da 23 43 bd e2 f0 98 bd 8e 04 70 bd
       0.34429765 -0.047641613 -0.0746782 -0.058598094
000330 db d6 40 bc 1e 41 7d 3d 16 72 d9 bd f1 9b c2 bd
       -0.011769976 0.06182968 -0.10617463 -0.095024
000340 89 00 89 bd 0d ee 9c bc 1c 17 4e 3a 42 15 8e 3e
       -0.06689555 -0.01915648 0.000786172 0.27750593
000350 12 30 16 3d 55 96 39 be 1c 79 37 bc 09 8c 0c bc
       0.036666937 -0.18123753 -0.011198308 -0.008578309
000360 3b 92 11 3c b4 b4 1b bd 34 54 a3 bc d8 9b dd bd
       0.008884962 -0.03801413 -0.019937612 -0.108207405
000370 31 88 89 3c 24 ae ec 3c 42 be 07 3d 9b e0 66 bc
       0.016788574 0.02889163 0.03314043 -0.014091636
000380 f9 fb 56 bd 95 31 9b 3c 37 aa d5 3b f7 5c 90 3d
       -0.052486394 0.018944541 0.0065205353 0.07048982
000390 0e d4 e8 bc 83 9f 21 bd a9 f1 3a be 32 3d d0 be
       -0.028421428 -0.039458763 -0.18256249 -0.40671688
0003a0 7c 75 68 3e fb 31 10 3b 43 0a 52 3e 05 40 b6 bc
       0.22701067 0.0022002447 0.20511727 -0.022247324
0003b0 a0 2f fa bd 36 9b 82 be c5 46 ab bc ee 9f 38 3d
       -0.12216115 -0.25509042 -0.020907769 0.045074396
0003c0 33 96 cd bd 0c b2 81 bd 6a 16 5d bc 85 0c 41 bc
       -0.10038414 -0.06332788 -0.013494113 -0.01178277
0003d0 d2 69 d9 3d f9 12 05 be 8a b3 bd 3c 54 dd 3e bd
       0.10615887 -0.12995519 0.0231569 -0.046597794
0003e0 86 ad 76 3b 2c a5 93 bd 41 6e a0 bb ea 44 3b 3d
       0.003764005 -0.072092384 -0.004895956 0.04572002
0003f0 3e c6 e7 3d e2 17 aa 3d cf b3 97 bd 87 ad 25 bd
       0.113171086 0.083053365 -0.07407343 -0.04044869

fc1.bias f4 [128]
000000 a5 03 9d 3d 9a d0 0d 3e 35 f3 29 3e 3e fd 19 3e
       0.07666711 0.13849106 0.16596682 0.1503801
000010 88 5f c4 bd 1d 06 24 3d cc c0 e0 bd be bc 6c 3b
       -0.09588534 0.040044893 -0.10974273 0.0036123241
000020 15 b8 12 3e 68 2a af 3d e2 1b 24 be f9 a2 99 bd
       0.14328034 0.0855301 -0.16026261 -0.07501788
000030 05 f0 16 be 89 45 a7 3d b2 65 b3 bc 77 e3 01 be
       -0.14739998 0.0816756 -0.021899078 -0.12684427
000040 3b e7 64 bd 7b 78 6c 3d 87 fa 83 3c 02 ed 26 3e
       -0.05588458 0.057732087 0.016110672 0.16301349
000050 f5 5a 1a bb 0a 69 5f 3d b9 34 58 bd 68 64 a9 3c
       -0.002355275 0.054543532 -0.052784655 0.02067776
000060 2e 18 c1 3b ff 88 19 3e 8c 0b 94 3d 7a 60 ca bd
       0.005892775 0.14993666 0.07228765 -0.09881683
000070 6c 47 1e be 99 e2 29 be de e1 81 bd cf 73 b8 3c
       -0.15456933 -0.16590346 -0.06341909 0.02251616
000080 45 98 27 3e 0c fe 8f bc c9 30 8b 3d 37 aa b5 3d
       0.1636668 -0.017577194 0.067964144 0.088703565
000090 88 dd 08 be a8 92 13 be 14 a5 86 3d 1f bc a6 3d
       -0.13365757 -0.14411414 0.06574455 0.0814135
0000a0 63 26 a6 bd bf a0 e0 3c a8 54 2e be e7 1e 2f 3b
       -0.081127904 0.0274204 -0.17024481 0.00267213
0000b0 b0 09 2f 3d f0 18 ba 3a 0a 54 e5 bc 70 14 94 3d
       0.042733848 0.0014198106 -0.027994175 0.07230461
0000c0 aa b8 44 bd d6 5a 05 3e f2 5f 19 be 39 a8 cb bd
       -0.048027672 0.13022932 -0.14978006 -0.09944195
0000d0 d4 74 14 be d6 06 21 be 95 eb 04 3e c5 2c 37 bd
       -0.14497691 -0.15725264 0.12980492 -0.04472043
0000e0 be f1 0b be a7 7b 15 3d 5d 3b 07 be 5a b0 16 3c
       -0.13666436 0.036494877 -0.13206239 0.009197319
0000f0 6c 6d a9 3d 02 e5 16 bd 42 3c b7 3d b9 23 13 3d
       0.08272824 -0.036839493 0.0894704 0.03592274
000100 d5 45 0f be 3e b8 0c 3d 50 dd e5 3d 22 44 25 bd
       -0.13991483 0.034355395 0.11223853 -0.04034818
000110 54 56 85 3c 40 40 b5 3c f4 d9 74 3c e8 7b 39 3d
       0.016276516 0.022125363 0.014944542 0.04528418
000120 e3 86 2a be 31 d3 07 3e 57 72 9a 3d a1 49 af 3c
       -0.16653018 0.13264157 0.0754134 0.021397414
000130 a5 2c 01 3d b3 22 10 be 00 35 4c bd 91 ac ed bb
       0.031536717 -0.14075737 -0.049855232 -0.0072532375
000140 7e bd 29 3d 82 f2 c1 bd e4 7a 93 3c 37 2b 5d bd
       0.04144048 -0.09470083 0.018002935 -0.05399629
000150 a7 b6 01 3e 6a 12 19 be 2a a6 93 3c e9 85 f1 3d
       0.12667333 -0.1494843 0.01802357 0.117931195
000160 64 83 0a be 10 59 a1 bb 2f 48 a5 3d f2 7a 8f 3d
       -0.13526684 -0.004923947 0.080704086 0.07005872
000170 89 53 a9 3c 76 fc 8f 3d 61 4c f8 bd a6 73 14 3e
       0.020669715 0.07030575 -0.12123943 0.14497241
000180 71 33 83 3b fa 94 e5 3d d0 65 1d 3d d8 bc a0 bc
       0.004003935 0.11210056 0.038427174 -0.019621298
000190 a2 a1 98 3d ec 28 29 3e 55 e9 2f 3e 24 07 16 be
       0.07452704 0.16519517 0.17178853 -0.14651161
0001a0 47 8c 2d 3c 1b ed ff bd 30 ca cf 3d af d7 ff 3d
       0.010592527 -0.12496396 0.10145986 0.1249231
0001b0 a4 6c f9 bd 34 2f 24 bc fd 1e f7 3d 80 05 ec 3d
       -0.12178925 -0.01002102 0.120664574 0.115244865
0001c0 be ea 05 be d4 84 ee 3d 0f a6 fa bc 10 bb 17 be
       -0.13077828 0.11646429 -0.030596761 -0.14817452
0001d0 af 92 0c 3d 5f 66 a5 3d ce ef d6 3d 52 44 f2 bd
       0.034319576 0.08076166 0.10494958 -0.11829437
0001e0 95 28 01 be c8 cc ef bd ee 65 ca 3d 1d cc 1b be
       -0.12613137 -0.11708981 0.09882723 -0.15214582
0001f0 2a 43 c3 ba 49 37 52 bd 50 2c 9b 3d 9a f4 0b 3d
       -0.0014897336 -0.051322255 0.07576811 0.034168817

fc2.weight f4 [256, 128]
000000 37 c8 0a bf d3 ca 35 bd 07 43 ca bb 52 52 93 be
       -0.54211754 -0.04438288 -0.006172541 -0.28773743
000010 01 af 66 3e d6 e7 4d be bc 09 65 bd 9a 23 1f 3c
       0.22527696 -0.2010797 -0.055917487 0.009713078
000020 3d 08 43 be 92 50 14 3c 49 12 08 3e cd fe 61 3d
       -0.19046111 0.009052413 0.13288225 0.055174638
000030 96 50 26 3f 1a ed bf bd 15 ac f3 3d fa f5 5e be
       0.64966714 -0.093713954 0.118980564 -0.2177352
000040 87 64 44 3d b3 bc 3f 3e 5c 18 8f bd 04 56 12 be
       0.047947433 0.18724327 -0.06987068 -0.14290625
000050 0e 31 2a be 19 3c 04 bf 30 1e 92 bd c5 36 be 3c
       -0.16620275 -0.516542 -0.07134664 0.023219476
000060 40 ab e5 3d 53 15 58 bd 3b fa da 3e 69 7d 7d bd
       0.11214304 -0.05275471 0.42769036 -0.06188718
000070 c7 8a 9f 3d df b8 fe 3d a7 33 f5 bd aa 3d 6f 3d
       0.077901416 0.12437605 -0.119727425 0.058408417
000080 95 83 0d bd 86 fa 4d 3e 57 e8 05 bf d7 28 2e be
       -0.034549315 0.20115098 -0.5230765 -0.17007767
000090 ef 6a 1f 3d 1b ea 70 3d 31 d7 1f be da 4e 80 3d
       0.03892034 0.05881701 -0.15609433 0.0626504
0000a0 fa a7 16 3e 68 49 24 3d a3 a1 01 be 98 ee 93 bd
       0.14712515 0.04010907 -0.12659316 -0.072232425
0000b0 2b 6d e9 bd 77 93 8d be e9 79 bb bc 8c 8c 76 3d
       -0.11397775 -0.2765157 -0.02288528 0.06019263
0000c0 84 ad 33 3e 3c 83 ca 3e 78 0e 8c bc 43 ce 8e 3e
       0.1754666 0.3955325 -0.017096743 0.2789174
0000d0 ea a2 fa bd 1e c5 53 3e b8 18 9c 3d ae 8f 80 3e
       -0.12238105 0.20680663 0.07621902 0.2510962
0000e0 d5 87 69 3d f3 fc 0d bf 51 f7 c6 bd 9a 95 a9 3d
       0.057014305 -0.55464095 -0.097151406 0.08280487
0000f0 64 96 41 be 1e c3 a4 be b2 79 0f be da 42 9a 3d
       -0.18905026 -0.32180113 -0.14011267 0.07532282
000100 3c 18 06 3e ab 20 d6 bd 5d c1 01 3e 98 83 11 3d
       0.13095182 -0.1045545 0.12671418 0.03552589
000110 16 c6 00 bc b9 f1 66 be 12 df 20 3d d4 ba 97 bb
       -0.007859727 -0.22553147 0.039275236 -0.004630426
000120 69 c3 84 bd 67 07 df 3c ab 7d d5 3d 90 16 8f 3d
       -0.06482584 0.02722521 0.1042436 0.06986725
000130 fc 85 6d 3d 5b d1 8d 3d 96 6b 5b be fe 5f 1d 3e
       0.057989106 0.06924697 -0.2142776 0.1536865
000140 db ae d8 bd 92 f3 f9 3e 5e 56 00 3f 16 ee 23 3d
       -0.10580226 0.48818642 0.50131786 0.04002198
000150 46 3d 19 3d a4 ef a9 3e 6c e3 16 3e cb 07 ce bb
       0.03741195 0.33190644 0.14735192 -0.00628755
000160 bf b4 a4 bd c2 4b 95 be d0 d6 d9 3d fe a6 10 3d
       -0.08042287 -0.2915936 0.10636675 0.035315506
000170 8f cd c5 bd d4 89 30 3b 3d 93 f5 3c 15 59 f4 3d
       -0.09658348 0.002693762 0.029977435 0.119310535
000180 97 a4 4d 3d 0d eb 29 bd 3f d0 49 3e 5f 5e a7 3e
       0.050205793 -0.041483928 0.19708346 0.32689187
000190 db 1f 0f 3e ff 80 50 3e 60 a4 7f 3d 8d b0 55 be
       0.13976996 0.20361708 0.06241262 -0.2086813
0001a0 04 95 e6 bd c6 9f bb bd a3 42 57 be 0f 21 dc bd
       -0.11258891 -0.09161334 -0.21021514 -0.10748493
0001b0 9b e9 ff bc 20 5d 82 be 52 ed 11 be f0 3a 0c be
       -0.031239321 -0.25461674 -0.14250687 -0.13694358
0001c0 3e 52 5d be 43 3b 11 bc d5 c5 99 3e 91 6b 43 3e
       -0.21613404 -0.008864227 0.30033746 0.19084002
0001d0 3e 77 8e be 9e 0c 10 3e 83 37 24 3e 63 1e 42 bd
       -0.2782535 0.14067313 0.16036801 -0.04739226
0001e0 1e e7 4d be 03 62 b3 3d c0 dd 7d bd a0 69 89 be
       -0.20107695 0.087589286 -0.061979055 -0.26838398
0001f0 3a 44 aa bc 94 f4 a9 3d c2 d5 0f 3f ab d6 99 be
       -0.020784486 0.08298603 0.56185544 -0.3004659
000200 88 99 aa 3b 5c 03 d3 3d 52 47 a7 bc be 96 a5 3c
       0.0052062906 0.10303375 -0.02041975 0.020213481
000210 41 a1 8b 3e 87 a8 12 3e 0a 6e 2a be 89 4d ad bd
       0.27271464 0.143221 -0.16643539 -0.08462054
000220 9b 37 9f 3e 16 46 dd bd b4 0c 8c 3e e8 70 ab bd
       0.3109711 -0.108043835 0.27353442 -0.083711445
000230 ea 7e 6e be e5 6a 91 3e 1d 61 fb 3d 3d 68 41 be
       -0.23290601 0.28401867 0.12274382 -0.1888742
000240 76 ac 83 3e cc 0c 04 3e 9d b3 40 bc f8 ff 1c be
       0.25717515 0.12895507 -0.011761573 -0.1533202
000250 8a 28 ea bd f9 49 8c 3b 63 2f 2c 3d 11 5a 1b 3e
       -0.114335135 0.004281279 0.04203738 0.15171076
000260 0d 9b 27 3e c7 a9 97 bd 00 56 89 3e 0d 02 75 3e
       0.16367741 -0.07405429 0.26823425 0.23926564
000270 27 29 d5 be 14 b7 50 3e 13 06 c1 bd 37 45 62 3e
       -0.4163296 0.20382339 -0.09424987 0.22096716
000280 84 b0 67 bb 80 42 a9 3e c6 66 1f be dd 92 a3 bd
       -0.0035353014 0.33058548 -0.15566549 -0.07986996
000290 53 de 27 3e cc 0b 1b 3e 36 0b 79 be 06 9d 6a 3e
       0.16393404 0.15141219 -0.24320683 0.22911462
0002a0 36 0f a3 3e 10 24 08 bb 85 b5 ac be 4b 3f d4 bc
       0.31847543 -0.0020773448 -0.33732238 -0.025909087
0002b0 1e 23 a6 be 72 ee 42 3d 02 0f 2d be 8f 6e 2f 3e
       -0.32448667 0.04759068 -0.16900256 0.17132019
0002c0 5f 12 7a bc c4 5e 1b 3e f0 01 45 3e 57 8a 8b 3e
       -0.015263169 0.15172869 0.1923902 0.27253982
0002d0 35 6e fa 3c c1 e5 ee 3c 2e 51 29 be d8 1c 81 3e
       0.030570129 0.02916229 -0.16534874 0.2521732
0002e0 a1 83 6f bd 90 cd ff 3d 06 8d 3b 3d 3d 51 58 bd
       -0.05847514 0.1249038 0.045788787 -0.05281185
0002f0 f5 3a 39 bd af 53 e1 bd c6 13 00 be cd 08 3d bd
       -0.04522224 -0.110022895 -0.12507543 -0.04615097
000300 c3 36 38 3e c3 ce e4 bd 56 63 7a be 17 d7 b6 3d
       0.1798964 -0.11172249 -0.24451956 0.08927744
000310 15 24 8e 3d f7 04 4b 3d d4 57 ee 3d 24 8b 21 3e
       0.06940476 0.04956528 0.11637846 0.15775734
000320 3b 65 60 be d9 9e 2f be 9f 4f 62 3d a5 8f 63 be
       -0.21913616 -0.1715044 0.055251714 -0.22222765
000330 1b 8f 2d 3f 8c 7b ba bc 96 1b 00 be 20 aa 13 3e
       0.67796487 -0.02276399 -0.12510523 0.14420366
000340 83 87 d3 bd 27 e7 ec 3d 19 19 a2 bd c8 cf ae 3c
       -0.10328581 0.11567526 -0.07914943 0.021339312
000350 e5 f6 68 3b a2 64 4c be 82 fd 35 bd 02 01 23 be
       0.0035547551 -0.19960263 -0.044431217 -0.15918353
000360 3f c7 cb bc 33 f4 f9 bd a7 01 36 3e ed 26 0f 3e
       -0.024875281 -0.122047804 0.17774068 0.13979693
000370 e2 d6 2c be ed 0f 89 3e 78 3c 78 3e 64 4e 2a 3a
       -0.16878846 0.26769963 0.24241817 0.00064966665
000380 d8 a6 0e 3e 99 b3 72 be ec 23 91 3e ec 54 4f be
       0.13930833 -0.23701324 0.2834772 -0.20247239
000390 fc ff 51 3e 7f ae 1b be 05 14 96 3d 5c 94 3c 3e
       0.20507807 -0.15203284 0.07328037 0.1841597
0003a0 b4 17 1a 3e 04 08 60 3e 4b 9c f1 3d 6b 97 78 be
       0.15048105 0.21878058 0.11797389 -0.24276511
0003b0 ed 44 ba 3d 3a 2e c2 bd e3 a8 5d be 36 76 ec 3d
       0.09095178 -0.09481473 -0.21646456 0.115459844
0003c0 38 5a 9e 3e 2f e5 32 3d 42 02 9e bd 4a 72 e4 3d
       0.30928206 0.043675598 -0.077152744 0.111546114
0003d0 d8 3f 97 be 87 ca 3f be 9e e1 16 3d 5a ac 61 be
       -0.29540896 -0.18729602 0.03683626 -0.22038403
0003e0 13 c2 03 be 7e 72 f7 bc 42 2d a1 bd 33 28 0d be
       -0.12867002 -0.030205961 -0.0786996 -0.13784866
0003f0 89 5a bb bd af 26 8e 3e e5 84 ac 3e d0 3d aa 3b
       -0.091481276 0.27763888 0.3369514 0.005195357

fc2.bias f4 [256]
000000 6a 87 89 be f4 39 00 bf b0 51 0d be ec c2 8b 3e
       -0.26861125 -0.5008843 -0.13800693 0.2729715
000010 8f 53 53 be e0 f8 aa be 0a 75 0e be e4 9f 09 bd
       -0.20637344 -0.33393002 -0.13911834 -0.03359975
000020 78 af 81 bd b1 0e db be 1c eb 59 be 4a 45 c5 be
       -0.06332296 -0.42784646 -0.21281093 -0.38529426
000030 f9 73 a8 be f8 d0 b8 be 2c 3a f3 3c c9 e6 a2 be
       -0.3290098 -0.3609693 0.029690824 -0.318167
000040 ba 18 26 be 91 68 00 be 8c 2f f6 be 4a b3 57 bd
       -0.1622037 -0.12539889 -0.4808315 -0.052661218
000050 47 2f 1f be 05 69 d8 bd 53 8c c6 bd bb 74 51 be
       -0.15545379 -0.10566906 -0.096947335 -0.20454685
000060 ca e8 92 be 68 11 6e 3d 03 e4 eb bd 82 54 5f be
       -0.2869323 0.05812207 -0.11518099 -0.21809581
000070 3f 4a 21 bd af 4b da bd 22 56 8c bd 12 98 f2 bd
       -0.039377447 -0.10658967 -0.06852366 -0.11845411
000080 c3 89 88 be 1b 51 8f bd 59 81 2c bd 21 2b 60 be
       -0.26667604 -0.069978915 -0.042115543 -0.21891452
000090 97 99 bf be 43 c5 41 be 76 28 bb bd c0 2a d9 bd
       -0.37421867 -0.18922906 -0.09138577 -0.10603857
0000a0 12 13 bc 3d 16 40 79 be 72 52 63 bd 50 8a 04 be
       0.09183325 -0.24340853 -0.055498548 -0.12943387
0000b0 20 76 b1 be 85 a7 18 be 58 91 43 3c c0 ae ca be
       -0.34660435 -0.14907654 0.011936508 -0.3958645
0000c0 78 ca 9d 3d 8e a9 79 3d 05 77 9b be aa 64 8e be
       0.077046335 0.060952716 -0.30364242 -0.27811176
0000d0 3f c9 6e be b6 35 c9 be 60 fa 87 bd 0b 2f ab bd
       -0.23318957 -0.3929879 -0.06639552 -0.08358582
0000e0 90 65 92 be cc ab 01 bf cb 3b 20 bf da df b9 be
       -0.2859311 -0.50652766 -0.62591237 -0.36303598
0000f0 e5 99 8b bd e4 87 99 be 83 96 e9 be 97 0c 91 be
       -0.068164624 -0.2998649 -0.45622644 -0.28329918
000100 e5 89 57 3e 69 ce fc be f1 d8 c0 be d9 12 cb be
       0.21048696 -0.49376228 -0.37665513 -0.39662817
000110 41 79 de 3d 76 e5 4b be 41 70 33 be d1 34 7d 3e
       0.10862971 -0.19911751 -0.1752329 0.24727179
000120 51 99 06 be 2e 73 66 be 90 aa c1 be 3d b9 00 be
       -0.13144423 -0.22504875 -0.3782544 -0.12570663
000130 0e 05 aa bd 81 f8 6d be 22 34 a7 be 64 93 86 be
       -0.08301745 -0.23239328 -0.32656962 -0.26284325
000140 17 0d 05 be 91 27 d3 be 16 7f d3 bd 6a 96 cf be
       -0.12993275 -0.41241124 -0.10326974 -0.40544444
000150 be 2f 84 be 94 ad 44 3e e5 5d e9 bd 4b 65 95 3d
       -0.25817674 0.1920684 -0.11394862 0.07294711
000160 32 48 82 bc 82 40 8c be a7 e6 76 be 2b 93 3a bf
       -0.015903566 -0.27392966 -0.24111424 -0.7288081
000170 fd c8 bb be ef b6 79 be 1d 44 fa bd ae ba 17 be
       -0.3667678 -0.2438619 -0.12220023 -0.14817306
000180 0e e9 e7 be b5 a1 70 be 1d b2 93 be cb 4f a4 be
       -0.45294994 -0.23499186 -0.28846827 -0.32092127
000190 ff 6a 8b be f5 74 bb be a3 d4 68 be 91 c2 24 be
       -0.2723007 -0.3661267 -0.22737364 -0.16089846
0001a0 c2 6a 95 bd 9b 90 13 3e 8d 60 58 be db 50 c0 bd
       -0.07295753 0.14410631 -0.21130581 -0.09390422
0001b0 5d 53 70 be e7 ee ca be 35 94 8d 3e 05 71 35 be
       -0.234693 -0.39635393 0.27652135 -0.17718895
0001c0 5b bb 0d 3e 69 94 ba be 9f 65 a2 be 9d 18 41 3d
       0.13841002 -0.36441353 -0.31718156 0.047142614
0001d0 81 5f 9d be 3e 7f 2a 3e e0 a0 8c be cb 2f 32 3e
       -0.30736926 0.16650102 -0.27466488 0.17401044
0001e0 43 29 a8 bd 4c dc c8 3c 80 27 1a 3e 92 5f e0 bd
       -0.08210995 0.024519108 0.1505413 -0.109557286
0001f0 fc 5d ce 3d 55 85 d8 be fb cd 5b be 9b b1 6d be
       0.1007652 -0.42289224 -0.21465294 -0.23212282
000200 82 49 d1 3c e1 3b 2d be 3c 72 6e 3d 82 6c e8 bd
       0.025547747 -0.16917373 0.05821441 -0.11348821
000210 f3 67 b3 be 49 7d 6a be 44 af e2 3d 37 b7 1e bd
       -0.35040244 -0.22899355 0.110685855 -0.038748946
000220 c4 e0 5a be a5 6e 10 be d5 a7 59 be a2 5e c6 be
       -0.21374804 -0.14104708 -0.21255429 -0.38744074
000230 1f 63 59 be 65 3f c3 be 38 75 8c bd b4 7f e8 bd
       -0.21229218 -0.38134304 -0.06858295 -0.113524824
000240 95 a7 a1 be 16 8f 92 be ed 4e 97 3d a7 af 93 ba
       -0.31573167 -0.2862479 0.07388101 -0.0011267558
000250 40 ae a7 be 6b 68 cc be 2a cf 52 be 28 5a 53 be
       -0.3275013 -0.39923415 -0.2058684 -0.2063986
000260 14 d9 1b be 2c 6e d0 be 7a ac b6 be 95 f8 d3 be
       -0.15219527 -0.40709054 -0.35678464 -0.4140059
000270 e2 70 b9 be 2d 4d 5a be 3f 9d c5 be 46 34 27 be
       -0.36218935 -0.21318503 -0.38596532 -0.16328534
000280 66 b8 b9 be d2 72 4a be c8 ae 97 be d2 df 2d be
       -0.36273497 -0.19770363 -0.29625535 -0.16979912
000290 ce 82 c3 be a1 4b 8b be f8 d7 75 be 50 a8 c8 be
       -0.38185734 -0.27206138 -0.24008167 -0.39190912
0002a0 dc 47 b4 3b 20 31 cb be b8 33 77 be 6c b8 0c bf
       0.0055017304 -0.39685917 -0.24140823 -0.54968905
0002b0 03 74 13 be d7 29 0b be ae 1f 5d be b9 2f 0c bf
       -0.14399724 -0.1359018 -0.21594116 -0.5476032
0002c0 ba fb 35 be e6 46 73 be 1a 2f b4 be e1 ec 8c be
       -0.17771807 -0.23757514 -0.35192186 -0.27524474
0002d0 c5 5d 02 3e b8 12 22 be 26 4d b8 be f8 09 37 3c
       0.12731083 -0.15827453 -0.3599636 0.01117181
0002e0 9b 4f ca 3d 51 85 c4 be 9c 74 5f bd ea 84 67 be
       0.09878465 -0.38382962 -0.054554567 -0.22609296
0002f0 1d 06 87 bd 01 cb f8 bd 06 dc 95 be bd 59 00 bf
       -0.06592963 -0.12148095 -0.29269427 -0.5013693
000300 e5 6a 2b be bc 56 75 bc cc 5a f0 be f6 78 9a be
       -0.16739996 -0.014974292 -0.46944273 -0.3017041
000310 2f c1 af be bc f0 e2 be 64 fb a2 bc 5e 55 d6 bd
       -0.34327075 -0.4432429 -0.019895263 -0.10465501
000320 dc 84 c0 be bc ec 1e bd ee cd 68 be 3f 97 9d bc
       -0.37601364 -0.038799986 -0.22734806 -0.019237159
000330 d0 20 dd bd 4d 02 48 be b5 05 15 3e 42 f3 11 be
       -0.10797274 -0.19532128 0.14552958 -0.14252952
000340 d8 2b 03 3e f9 fa d5 bd 91 fb b6 be c4 a1 14 be
       0.12809694 -0.1044826 -0.35738805 -0.14514834
000350 96 35 b3 be 87 65 8f be 52 7b 3a be 78 8f 16 bd
       -0.3500182 -0.28007147 -0.18211105 -0.036757916
000360 db 66 7f be cd 72 07 be 8b 2f 7f be 67 52 81 be
       -0.2494158 -0.13227387 -0.2492048 -0.2525818
000370 fb a3 12 3e 19 fc d3 be 23 c3 ae be da 33 2e bd
       0.14320366 -0.41403273 -0.34133253 -0.04252992
000380 9e a9 1a be 1b b7 8c be 01 71 11 bf 76 a5 42 3e
       -0.15103766 -0.27483448 -0.56813055 0.19008431
000390 91 2f 39 be 3b 53 19 3e 96 e2 c5 be fa 21 64 be
       -0.18084551 0.14973156 -0.38649434 -0.22278586
0003a0 81 ac 12 be d3 70 e7 3c 4c b8 55 be 10 f0 19 be
       -0.14323618 0.028252041 -0.20871085 -0.15032983
0003b0 38 78 1a be 17 4e a3 bd ce 89 97 bc 47 0a 85 be
       -0.15084922 -0.07973879 -0.018498328 -0.25984403
0003c0 33 7b ae be a8 e5 4e bd 69 e7 05 3b e7 84 19 be
       -0.3407837 -0.050511986 0.002043212 -0.14992104
0003d0 16 26 51 be 12 28 a8 be c9 92 22 bd e9 eb 56 3d
       -0.20424685 -0.3284307 -0.039690766 0.052471075
0003e0 0d 2e 53 be 6e 49 d0 be ae 42 1c be 4b 70 27 3d
       -0.20623036 -0.40681022 -0.15259811 0.040878575
0003f0 ce 5f 26 be 4f be c2 bd 4e 1c 11 3e a1 ab bf be
       -0.16247484 -0.09508955 0.14170954 -0.3743563

fc3.weight f4 [4, 256]
000000 1d 21 ae bf 5e 07 72 3d ba 09 72 3e 67 83 09 bf
       -1.3603855 0.059089057 0.23636523 -0.5371613
000010 10 3f 1e 3e 13 46 2a bf 43 10 55 3f ba 1c b4 bf
       0.15453744 -0.66513175 0.8322794 -1.4071267
000020 8c 75 1b be 08 a4 9e 3d 2a d8 08 bf d8 c2 25 3e
       -0.1518156 0.0774613 -0.5345484 0.16187608
000030 87 49 48 3f 5b f3 ba be b2 da 20 3f 35 08 5e 3f
       0.78237194 -0.3651379 0.628337 0.8673127
000040 cc ad b9 be 6c 0e 92 3f 40 b8 3d bf 9b 0f ea be
       -0.3626541 1.1410651 -0.7410927 -0.4571503
000050 66 4d d9 be e1 4a 1f 3f 0d d6 e3 bf 48 ea 84 3f
       -0.42441863 0.6222363 -1.7799698 1.0383997
000060 26 9f 99 3f 63 38 ce 3e 6e 75 c7 3e 22 07 f3 3e
       1.2001693 0.40277395 0.3895678 0.4746638
000070 3e de 01 bf bc 18 8a bc d8 ae 60 bf 4b 84 7f 3e
       -0.5072974 -0.016857497 -0.8776679 0.2495281
000080 e9 c5 4b 3f 54 a4 fb 3e 3c c6 1a 3f 5a 52 25 3f
       0.7959886 0.4914881 0.6045873 0.64578784
000090 aa ad 8e bf b6 56 1e bf 90 73 dc bc eb 6e 34 be
       -1.1146748 -0.6185106 -0.026910573 -0.17620437
0000a0 0b 2f 12 3e ba 5a 4a 3e f1 30 32 3e 22 42 26 3f
       0.14275758 0.19761172 0.17401482 0.6494466
0000b0 a2 34 be 3e fc 01 02 bf fc be 36 3f ea 2a 64 3e
       0.3714953 -0.5078428 0.7138517 0.22281995
0000c0 ec 0d 44 3e 31 8f a5 be 6a 32 1f 3f 25 cc 39 bf
       0.19145936 -0.3233581 0.621863 -0.72577125
0000d0 a8 2f 34 3f 43 67 bd be 3d c2 8c 3f a3 8b c5 bc
       0.7038522 -0.36992845 1.0996777 -0.024114436
0000e0 ea a0 27 bd 6b f6 82 3f a0 a9 1a 3f ad 4f ea be
       -0.040924944 1.0231451 0.6041508 -0.45763913
0000f0 89 4d 8a 3e fe ce 83 bd f7 11 06 3f 5c 8a bf 3e
       0.2701228 -0.06435965 0.5237116 0.37410247
000100 c1 c8 59 3e 84 f0 df be fb ae 20 3f 38 d6 e6 be
       0.21267988 -0.43738186 0.62767 -0.4508531
000110 ff 56 f9 3c 87 27 85 bf f3 c9 39 be ac 51 9a 3e
       0.03043699 -1.0402688 -0.18143444 0.30140436
000120 07 6a d6 bd e9 f5 08 3e 70 c7 be 3e d4 c6 80 be
       -0.10469442 0.13375057 0.37261534 -0.25151694
000130 51 9e 50 be 32 25 71 bf 27 a1 93 bf c9 cc f1 3d
       -0.20372893 -0.9419738 -1.1533555 0.11806638
000140 95 59 28 bf fe 1b 9f 3f 99 35 44 bf 01 17 2a be
       -0.6576169 1.2430418 -0.76644284 -0.16610338
000150 a3 26 97 be 66 9d c9 3e 4a e3 c9 bf 2a 6a de 3d
       -0.29521665 0.39377898 -1.5772488 0.10860093
000160 d3 10 db bf ca dd 42 bf 43 25 09 bf ba ad 00 3e
       -1.7114509 -0.76119673 -0.5357248 0.12566271
000170 d4 28 d4 3e ef 02 88 be 4c 5d f4 be c9 79 e9 bc
       0.414374 -0.26564738 -0.4772743 -0.028500455
000180 37 ac d8 be 44 cc 06 3d 00 e2 83 3f 5e 7e 9e 3e
       -0.4231889 0.032909647 1.0303345 0.30955786
000190 62 03 cb be 79 f3 59 3f 20 50 da bd 7e ae 5b be
       -0.39651018 0.85137135 -0.10659814 -0.21453282
0001a0 15 02 61 be 36 6c ff bd 49 92 4e 3d c0 af 33 bf
       -0.2197345 -0.124718115 0.050432477 -0.7019005
0001b0 3e 7c 4c bf 55 7f 3f 3f bb 85 7b be 98 90 c7 be
       -0.7987708 0.7480367 -0.24562733 -0.38977504
0001c0 93 aa b3 bd a3 15 77 3e 72 a0 d2 bf 08 32 d5 be
       -0.08772769 0.24129348 -1.6455214 -0.41639733
0001d0 3d 7c 75 3e 13 e7 7a 3e b7 a2 87 bf 28 e4 cf 3d
       0.23973174 0.2450221 -1.0596532 0.10150939
0001e0 1c 36 da be 70 97 48 be c3 63 68 3e 1a 2d db be
       -0.42619407 -0.19589019 0.22694306 -0.42807847
0001f0 7c 63 86 3e d4 1f d7 3e 22 f9 14 3f 42 91 83 3e
       0.26247776 0.4201647 0.58192647 0.2569676
000200 21 8a a3 bd 60 bd 35 be 78 a9 30 be e4 2c 01 bf
       -0.079853304 -0.17748022 -0.17252147 -0.5045912
000210 55 1e 3e 3e 8c 4b 8e 3f 28 5a 81 3e 2c 04 46 bd
       0.18566258 1.1116805 0.25264096 -0.048343822
000220 c9 6d 7c bf a9 7b cd bc cb c3 52 3c 9b 98 70 be
       -0.9860502 -0.02508338 0.0128640635 -0.23495714
000230 1d 74 be be f3 25 02 3f 1c 56 1c 3f 97 3b 34 be
       -0.37197962 0.50839156 0.6106889 -0.17600857
000240 22 71 2d be 81 9a 03 3e e5 8e e1 3e 75 dd 21 3d
       -0.16937688 0.12851907 0.44054332 0.03951784
000250 42 2f 2b 3f db 60 fa bf 1c 2a 41 bf 2a 79 6e 3f
       0.66868985 -1.9560808 -0.7545488 0.9315363
000260 39 65 ad bf f2 da c0 3e b0 0e dc bd 9e e0 72 3f
       -1.3546516 0.37667042 -0.10744989 0.9487399
000270 f1 f3 df be 67 d6 4d bf cf a1 b2 3f ee 21 3f be
       -0.437408 -0.80405277 1.395563 -0.18665287
000280 b4 04 82 be 04 05 13 3e 24 ee 0b 3f ce d4 7d bd
       -0.25394213 0.14357382 0.5466025 -0.061970524
000290 a3 0c 82 bd 26 74 45 3f c9 52 8f bf 9a 4d 2f 3f
       -0.063500665 0.77130353 -1.1197139 0.68477786
0002a0 32 4f ff bd c3 b5 17 be 33 9f ae bf da a6 88 be
       -0.12466277 -0.1481543 -1.3642334 -0.26689798
0002b0 af 69 df be 5a 7c 64 bf a8 ec b0 3e ce b6 b0 3e
       -0.43635318 -0.89252245 0.34555554 0.3451447
0002c0 12 2a 06 be 74 c5 08 3f 12 b9 31 3f ec 7b a6 be
       -0.13101986 0.5342629 0.6942302 -0.3251642
0002d0 ea 04 51 3e 79 b3 05 3f 6a 73 fb be 16 6f a8 3f
       0.20412031 0.5222698 -0.4911149 1.3158901
0002e0 19 c8 60 3f 5d 8b 23 be 38 4f a5 3f 86 26 d4 bf
       0.87805325 -0.15971132 1.2914801 -1.6574256
0002f0 ba bc f9 bf 97 fd ec bb 37 02 7a 3e 72 16 a7 bf
       -1.951072 -0.0072323787 0.24414907 -1.3053725
000300 a4 0b f2 bf cb 52 a2 be bd 3d d1 3e 19 da d9 be
       -1.8909802 -0.3170379 0.40867415 -0.42549208
000310 5a f9 cf 3e 20 e4 d3 be 35 b2 d5 3d e9 e3 22 bf
       0.40619928 -0.41384983 0.10434381 -0.63629013
000320 53 9c 2a be 64 0e 10 3f 0a 5b 4a 3f 3a cf de be
       -0.16661195 0.5627196 0.79045165 -0.43517476
000330 ba 68 4b 3f 98 ef 5a be 2d df 42 3f 64 5e 9a bd
       0.79456675 -0.2138046 0.7612179 -0.07537535
000340 59 5d 13 be ca 08 9d bd d0 f1 09 3f 24 76 bc bc
       -0.14391078 -0.07667692 0.538846 -0.023005553
000350 40 b7 01 3f ca 0a 1b 3f 0f 79 eb 3e c3 38 dc bd
       0.5067024 0.6056334 0.45990798 -0.10753014
000360 1b 77 82 be 17 af 3d bf a4 1b 04 be 7d bd a2 3e
       -0.25481495 -0.7409529 -0.12901169 0.31785193
000370 aa 4f 6e 3d a7 ac 36 bf e5 59 88 be bf ab 36 3f
       0.058181442 -0.71357197 -0.26631084 0.71355814
000380 81 5e 9c 3e 84 99 28 bf cc a1 e1 3e 3e b6 02 40
       0.3054085 -0.65859246 0.44068754 2.0423732
000390 41 e8 51 bf 0a ec 42 3f 2c d6 b0 bf ad 27 11 3f
       -0.81995016 0.7614142 -1.381536 0.56701165
0003a0 08 f7 0a 3e 75 58 07 be 83 4a 5f 3f d3 19 6c be
       0.13570797 -0.13217337 0.8722307 -0.23056726
0003b0 b5 df 3a 3f 24 97 90 bd 63 d7 df 3e 31 7f 5e bf
       0.729976 -0.07060078 0.43719015 -0.8691283
0003c0 7e ac 33 bf c4 5f ce 3e aa b3 e9 3e 89 bd df be
       -0.7018508 0.40307438 0.45644885 -0.4369929
0003d0 24 81 84 3e 73 f6 a1 bf 9a 16 d5 be 6c 14 40 3f
       0.25879776 -1.2653335 -0.41618806 0.7503116
0003e0 6c d0 98 be cc 78 a3 bd 4c 95 90 3f 96 3e 83 be
       -0.29846513 -0.079820246 1.1295562 -0.25633687
0003f0 c1 e3 50 bf 9a 53 98 bf 9a 58 b0 bd d8 29 32 bf
       -0.81597525 -1.1900513 -0.086106494 -0.695951

fc3.bias f4 [4]
000000 9d 49 90 3a bd bb 66 3e 2d ed c1 bd c3 c4 80 3b
       0.0011008267 0.22532554 -0.09469066 0.003929706

bn.weight f4 [128]
000000 b5 a7 89 3f e1 db b0 3f 8a 3f c2 3f 7c f4 e0 3f
       1.0754305 1.3817102 1.517564 1.7574611
000010 72 e4 6f 3f f2 cc 95 3f f2 70 92 3f bc 33 c4 3f
       0.93707955 1.1703169 1.1440718 1.5328288
000020 98 2f a1 3f da 9c 83 3f 1b 45 af 3f a5 d6 96 3f
       1.259265 1.0282242 1.3692964 1.1784254
000030 53 47 9e 3f 66 e4 9a 3f 7c c5 a9 3f c0 af a5 3f
       1.2365516 1.2100952 1.3263392 1.294426
000040 3a a4 95 3f 36 08 ab 3f 23 00 8b 3f a9 1c a4 3f
       1.1690743 1.3361881 1.0859417 1.2821246
000050 e8 5f 8a 3f 80 ae 7c 3f 60 a7 9d 3f 0f db b9 3f
       1.0810518 0.98703766 1.2316704 1.4519976
000060 78 48 66 3f aa 6a 74 3f d0 81 98 3f 32 1e ae 3f
       0.8995433 0.95475256 1.1914616 1.3602965
000070 f1 00 8c 3f a9 f1 a4 3f d7 ca 99 3f be 8e ea 3f
       1.0937787 1.2886249 1.2015027 1.8324811
000080 d8 4a b0 3f fa d3 a1 3f ba 3e 84 3f 87 64 8f 3f
       1.377284 1.2642815 1.0331643 1.1202554
000090 2f ff 79 3f 14 30 93 3f 58 95 ac 3f d9 c3 8d 3f
       0.97655004 1.1499047 1.3483076 1.1075393
0000a0 0c 8e 97 3f 32 0a 87 3f c3 25 90 3f d4 49 b0 3f
       1.1840224 1.0549986 1.1261524 1.377253
0000b0 95 e4 eb 3f e6 99 96 3f 8d a3 c9 3f 66 4e 85 3f
       1.8429133 1.1765716 1.5753037 1.041455
0000c0 a6 2f 9d 3f 56 02 ae 3f 0b ea 98 3f 1f 35 9d 3f
       1.2280166 1.3594463 1.1946424 1.2281836
0000d0 81 c7 aa 3f 46 1c a3 3f 3c 1e 9f 3f 7c 2a c2 3f
       1.3342134 1.2743003 1.2431102 1.5169215
0000e0 12 ae 7c 3f 59 07 7d 3f 28 d1 78 3f 6a 03 ad 3f
       0.9870311 0.98839337 0.9719415 1.3516667
0000f0 7b d0 94 3f 92 81 87 3f 9e c2 72 3f 2e 0d 88 3f
       1.1626123 1.0586417 0.9482821 1.0629022
000100 d3 6b 9c 3f bb 0c 4a 3f 66 7d 95 3f ff 30 98 3f
       1.2220405 0.78925675 1.1678894 1.1889952
000110 ad 26 91 3f e0 21 86 3f 1f 73 7f 3f 48 0e 91 3f
       1.1339928 1.0479088 0.99785036 1.1332483
000120 a0 67 9e 3f 3b b2 7b 3f a9 e8 75 3f 19 9b 66 3f
       1.2375374 0.98318833 0.96058136 0.9008041
000130 4e 68 91 3f 9c 5e 8e 3f e5 fa dc 3f 90 09 a9 3f
       1.1359956 1.1122622 1.7264067 1.3206043
000140 45 4e b0 3f 6d 95 a9 3f 97 d3 9e 3f 65 e7 8c 3f
       1.3773886 1.3248726 1.2408322 1.1008116
000150 24 67 9c 3f 1e b1 91 3f 59 b5 d9 3f d9 17 a7 3f
       1.2218976 1.1382177 1.7008468 1.3054153
000160 e0 75 ae 3f 80 61 ab 3f d3 94 71 3f 3b 20 86 3f
       1.3629723 1.338913 0.9436771 1.0478586
000170 a1 bb a3 3f 19 fe a2 3f 9b 3b 96 3f ee 07 88 3f
       1.2791635 1.2733794 1.173694 1.062742
000180 2f 5b 58 3f 39 b2 88 3f d2 37 9c 3f 12 a5 a5 3f
       0.84514135 1.0679389 1.2204535 1.2941
000190 76 8b 8e 3f be e5 84 3f f6 51 86 3f 67 18 8e 3f
       1.113631 1.0382612 1.0493762 1.1101197
0001a0 e3 cd 94 3f fa 48 ad 3f 78 41 73 3f 3a e4 9f 3f
       1.1625332 1.3537896 0.9502177 1.2491524
0001b0 c1 5c 93 3f 76 d7 85 3f 24 ec 47 3f e9 0d 83 3f
       1.1512681 1.0456378 0.78094697 1.023862
0001c0 56 69 94 3f 85 de b8 3f db cb a0 3f 88 8c 4f 3f
       1.1594646 1.4442908 1.2562212 0.8107381
0001d0 cf ee dd 3f a5 4a 8f 3f 98 0c 9d 3f 8f e4 9f 3f
       1.7338504 1.1194655 1.2269468 1.2491626
0001e0 af 7c 97 3f fe b2 92 3f cd fb 8e 3f 2f 99 85 3f
       1.1834925 1.1460874 1.1170594 1.0437373
0001f0 22 9d 49 3f 4d cb 89 3f b2 a7 af 3f 2a bf 5c 3f
       0.7875539 1.0765167 1.3723052 0.86229193

bn.bias f4 [128]
000000 2b 93 1b bf 3c 5f f8 be 83 87 28 3e 8f bd bc 3e
       -0.60771435 -0.48510158 0.16457944 0.36863372
000010 9b 80 ec be 1f 0f 2b bf 70 82 23 3f 6c 9b b3 ba
       -0.46191868 -0.6681995 0.63870907 -0.0013702936
000020 bc 05 39 bf 29 45 d5 be 9e e7 af be 16 c2 10 bf
       -0.72274375 -0.41654328 -0.34356397 -0.5654615
000030 83 64 36 bf 4b 71 89 3d 9d 98 06 be 5f a4 14 3e
       -0.7124712 0.06711062 -0.13144155 0.14515828
000040 f2 4e 40 bf 05 96 bf be 23 a3 26 3f 4a d0 13 3f
       -0.7512046 -0.37419143 0.65092677 0.577397
000050 43 52 2a bf 79 eb 7e bf 1a 81 0d bf b3 8d 36 be
       -0.6653177 -0.9957805 -0.5527512 -0.17827491
000060 e6 1e cc bd 27 63 3c 3e fc c2 4a bf b6 33 63 bf
       -0.09966831 0.18397199 -0.7920377 -0.8875078
000070 22 62 8b bf 15 dd 5e be 34 49 03 3e 6e b9 77 be
       -1.0889323 -0.21764024 0.12820894 -0.2419183
000080 4e df 97 bd 48 d5 31 bf 2e 58 9e 3e 7f 77 18 3f
       -0.07415639 -0.69466066 0.3092665 0.59557337
000090 28 fa 0d bf 95 18 16 be a2 62 f7 be 17 e6 0d bf
       -0.55459833 -0.14657815 -0.48317438 -0.55429214
0000a0 42 c0 20 bf 2e 39 57 3f e0 78 f9 be 8d bd f3 be
       -0.6279336 0.84071624 -0.48725033 -0.47605553
0000b0 91 31 20 3f 8a b3 84 bd 02 b4 17 bf 0a 21 84 bf
       0.6257563 -0.06479557 -0.59259045 -1.0322583
0000c0 a1 d3 e6 bd 98 b4 38 bf ee bf 46 bf ec d1 c7 be
       -0.11270834 -0.72150564 -0.7763661 -0.39027345
0000d0 3a f9 a0 3e 72 7f 44 3e a2 cb bf be c8 32 3d bb
       0.31440145 0.19189242 -0.37460047 -0.002886938
0000e0 e0 87 30 be a5 f6 c4 be d4 64 31 bf fd f9 81 3e
       -0.17239332 -0.38469425 -0.69294477 0.25386038
0000f0 bc 84 51 3e 76 3f 29 3f 7d b2 52 bf df 00 2c 3f
       0.2046079 0.6611246 -0.823036 0.6718883
000100 f8 62 22 bf 52 08 5e 3f fa 3c a1 3e 15 db c6 be
       -0.63432264 0.86731446 0.31491834 -0.3883902
000110 35 d4 1f bf 7a d7 fa bd b9 cf 7c bf 7b a2 52 3e
       -0.6243318 -0.1224813 -0.9875446 0.20569794
000120 35 88 4b 3d 17 25 dc bc 15 cb 5e 3d cf 1a 13 be
       0.049690444 -0.026873155 0.054392893 -0.14365695
000130 ce 5d 48 bf 1f 05 c8 be b4 11 e2 3e 3d 3b 29 bf
       -0.78268135 -0.39066407 0.4415413 -0.66106015
000140 9c f1 7e 3f 0d c3 aa be fd d9 11 bf 40 68 e0 be
       0.99587417 -0.33351937 -0.5697325 -0.43829536
000150 00 02 61 be 6c 18 00 bf d9 2d 70 3f a4 d4 f2 3a
       -0.21973419 -0.50037265 0.9381996 0.0018526507
000160 bc 01 33 3f d5 52 33 bf be d2 03 3c df b1 5b bf
       0.6992452 -0.70048267 0.00804585 -0.85818285
000170 c9 23 76 3f 6a 09 8c bf 0e ca bd be 1e de 38 bf
       0.96148354 -1.0940373 -0.37068218 -0.72213924
000180 2c 99 7f be bc 31 2a be 7a 03 07 bf 36 27 a0 bf
       -0.24960774 -0.16620535 -0.5273968 -1.2511966
000190 c1 cc 0f bf c5 8f 19 be 36 e6 1a bf 85 93 78 bf
       -0.56171805 -0.1499625 -0.60507524 -0.97100097
0001a0 cd c6 3b bf 2e 48 44 bf da c4 24 3d f4 bd ef 3a
       -0.7335022 -0.7667264 0.040226795 0.0018290863
0001b0 af 2e bc be 4d cb 38 be 35 5e 2d 3f c3 f6 af be
       -0.36754367 -0.18046303 0.67721874 -0.34367952
0001c0 b7 6d 83 bf 42 1a b2 bc a9 65 1e be 36 98 5d bf
       -1.0267857 -0.021741036 -0.15468468 -0.8656038
0001d0 eb 36 ed 3e 3c ae 51 bf 5e 92 ea be c8 95 87 3e
       0.46330962 -0.81906486 -0.45814794 0.26481462
0001e0 13 f6 27 3f c7 10 95 be b8 f9 0a bf cd 7c 9e be
       0.65609854 -0.29114363 -0.5428729 -0.3095459
0001f0 ea a3 2d bf bd c4 89 bf 38 a5 ad bf 9e fa 97 3f
       -0.6782824 -1.0763165 -1.3566046 1.1873357

bn.running_mean f4 [128]
000000 0f d3 b7 be e9 64 68 bf e7 cb 32 bf 44 38 24 3e
       -0.35903212 -0.90778977 -0.6984238 0.16037089
000010 ce 87 5f be e5 46 63 3f d3 b9 0e bf 91 0d 9d be
       -0.21829149 0.8878005 -0.55752295 -0.30674413
000020 47 5d b3 be 58 86 2d be f2 5d 41 be f8 8a 90 be
       -0.35032102 -0.1694578 -0.18883494 -0.28231025
000030 3f 87 39 be 1b d2 b6 3e 11 0c 5e 3f a5 d4 48 bf
       -0.18117999 0.35707173 0.8673716 -0.7844947
000040 3d 86 81 be 91 3e 2f 3e 48 dd 81 bf cf 16 a3 3f
       -0.25297728 0.17113711 -1.0145655 1.2741336
000050 1d 45 ca 3e 63 03 59 bf b8 a4 85 3e a5 1a dc 3e
       0.39505854 -0.8477079 0.26102233 0.42989078
000060 6c 3c 07 3e d0 b1 96 3f 83 5f 09 bf 14 bc c0 be
       0.13206643 1.1773014 -0.53661364 -0.37643492
000070 7e 4d fa bc 89 4b 85 3d af 35 a6 bf 7d fc 96 be
       -0.03055453 0.06508548 -1.2985133 -0.29489508
000080 37 45 ee 3d be 5c 83 be 96 60 82 3e 16 dd 20 3f
       0.116342954 -0.25656694 0.25464314 0.6283735
000090 7f 0a b3 be 72 fd 07 bf 38 19 a1 3e 1b be 3a 3e
       -0.34968945 -0.531211 0.31464553 0.18236582
0000a0 16 df a7 bf 78 b0 c1 be a3 0c ae be bb f9 13 bf
       -1.3114955 -0.37829947 -0.33994016 -0.57802933
0000b0 2b 1b 11 bf 35 f8 7e 3f c4 c1 69 3d c4 35 1d 3f
       -0.5668208 0.99597484 0.057069555 0.61410165
0000c0 d5 e4 a7 be 28 5c bc 3e 5f 44 8c bd d7 54 d3 bf
       -0.32791772 0.3678906 -0.06848978 -1.6510266
0000d0 c6 16 87 bd c4 f8 c3 3d 5e 82 4e 3f 5c da b4 bd
       -0.065961406 0.09568933 0.80667675 -0.08830711
0000e0 82 78 1c bf d9 fa 6d 3e ec 4a 1d be 18 67 bb 3e
       -0.6112138 0.23240222 -0.15360612 0.36602092
0000f0 91 fe ce be 6f 57 fa 3e bf d9 61 bf 81 2b 97 bd
       -0.40428594 0.48894832 -0.8822288 -0.073813446
000100 c3 01 2c bf 1d 18 a7 3f f8 01 88 3f 78 14 5d be
       -0.6719019 1.3054234 1.0625601 -0.2158984
000110 15 db 13 3f 0b 2e 92 be 11 db 80 bf 2c 12 0c bf
       0.5775617 -0.28550753 -1.0066854 -0.5471523
000120 be 85 f6 bd c8 6a 57 be 3d b8 0c 3f 99 b5 40 bf
       -0.12037228 -0.21036828 0.54968625 -0.75277096
000130 e7 6d 95 be f8 bc 7d be 1e f1 15 3f e4 87 57 3e
       -0.2918541 -0.24779117 0.5857104 0.21047932
000140 ce 59 c2 be 1c 8f df be 10 35 7f 3e 00 33 6f 3f
       -0.3795914 -0.4366387 0.24922585 0.93437195
000150 92 74 0a 3f 07 c3 f8 bd ee 34 a1 3e 99 ac 01 3e
       0.5408412 -0.121465735 0.31485695 0.12663497
000160 fe 61 96 3f 31 f6 0e be e0 d1 14 3e 86 63 60 3f
       1.1748655 -0.13961102 0.14533186 0.8765186
000170 51 26 12 3f fd 8f 0d 3e 92 12 4a bf 1c 55 21 3f
       0.57089716 0.13824458 -0.78934586 0.6302049
000180 19 14 7d bf 3f 92 ab 3d 83 21 00 bf c5 db 20 bf
       -0.9885879 0.083775036 -0.50051135 -0.6283534
000190 64 21 b7 be be 9f c1 be 04 15 78 bf a1 87 61 be
       -0.35767663 -0.37817186 -0.9690707 -0.22024395
0001a0 e9 0d 89 be e4 28 11 3e af 3b 6e bf c1 0b 69 be
       -0.26768425 0.14175755 -0.9305982 -0.2275839
0001b0 35 85 8f bf 0a 19 91 bd 2b 40 94 3f de ca d6 3f
       -1.1212527 -0.07084854 1.1582083 1.678066
0001c0 09 b9 83 bf 60 62 b4 3e a6 ce 11 bf 9e 9d 64 bf
       -1.0290843 0.35231304 -0.56955945 -0.89303005
0001d0 f1 d5 47 3f d1 d6 d5 bd cf 44 49 bf 84 99 a1 3e
       0.78060824 -0.104413636 -0.7862062 0.31562436
0001e0 1e 52 e4 be 64 e1 6a 3f 3e 8b 66 bf 3d 7a 43 bc
       -0.445939 0.9175017 -0.90056217 -0.011930999
0001f0 33 59 96 be c8 83 8b be e6 62 c5 bd 38 0e 0e 3f
       -0.2936493 -0.2724898 -0.09638004 0.55490446

bn.running_var f4 [128]
000000 ac c7 26 40 67 32 77 3f 31 ef 36 3f 40 d4 94 3e
       2.605937 0.9656128 0.7145873 0.29068184
000010 14 c8 d2 3f 12 69 56 40 b3 ff 05 3e fa 73 0a 3f
       1.6467309 3.350163 0.13085823 0.54083216
000020 ab f6 00 3e cf 9a 0e 3f c7 af 63 3e b1 68 1b 40
       0.12594096 0.5570497 0.22235022 2.4282649
000030 44 ba 0a 3f c4 2f 4f 3e 48 5b 58 3f 57 8c d1 3e
       0.5419047 0.20233065 0.84514284 0.40927383
000040 5d d5 ad 3e 3b f6 e5 3d b9 25 1b 40 7f e3 a0 3f
       0.33951846 0.11228605 2.4241774 1.2569426
000050 e9 9c 45 3f 73 0f c1 3f 8e b2 18 3f a3 60 f0 3f
       0.7719255 1.508284 0.5964745 1.8779491
000060 07 70 b7 3e c3 4e 72 3f ec 73 55 3f 6c 81 4c 3f
       0.35827658 0.9465143 0.8338001 0.7988498
000070 44 42 1f 3f 39 89 8e 40 53 31 27 40 4f f4 25 40
       0.6221049 4.454251 2.6123855 2.5930364
000080 cd c6 b7 3e e2 a6 8f 3f 4e c0 83 3e fe 98 08 3f
       0.3589386 1.1222804 0.25732654 0.5335845
000090 e0 c3 0b 40 cd 02 bd 3f d9 25 93 3f a1 2b b0 3f
       2.1838303 1.476648 1.1495925 1.3763314
0000a0 49 6b 8b 3f 1c 74 82 40 36 1b 02 3f c5 4d d2 3e
       1.0892116 4.0766735 0.5082277 0.41074958
0000b0 a8 e9 ff 3f 99 ab a6 3f ea a0 7a 3f 6e 24 ba 3f
       1.9993181 1.3021117 0.97901785 1.4542367
0000c0 d7 3d 2c 3f 43 70 9c 3d 92 95 55 3f fb d5 84 3f
       0.6728186 0.076386 0.8343135 1.0377802
0000d0 82 a2 92 3e e0 d5 0d 3e c9 a5 98 3f 46 b4 9b 3d
       0.2863961 0.13851118 1.1925594 0.07602744
0000e0 03 b5 8f 3e 5b 70 c5 3e 7e 86 93 3f 86 56 27 3f
       0.28067788 0.38562283 1.1525419 0.653664
0000f0 aa 07 0f 3f 60 67 08 3f 47 46 98 3f 39 07 8d 3e
       0.5587107 0.5328274 1.1896447 0.27544573
000100 3e c2 8a 3f 30 da 13 40 8f d5 a9 3e eb 14 9a 3f
       1.0840528 2.310192 0.33170745 1.2037634
000110 86 57 f8 3e 72 6e 53 3e 27 44 66 3f d2 f8 c7 3e
       0.48504275 0.206476 0.8994774 0.39057022
000120 46 ad 57 3e e9 1f a6 3d e3 92 5a 3e 8b ee 52 3f
       0.21062192 0.08111555 0.21345095 0.8239524
000130 a6 66 46 40 4c 4a 19 3f 38 11 47 40 c3 77 8d 3f
       3.1000152 0.59878993 3.110426 1.1052173
000140 38 78 a6 40 88 b1 83 3e 7f 64 75 3f b0 99 20 40
       5.202175 0.25721383 0.9585647 2.5093803
000150 a2 90 83 3f f7 f0 ad 3f f7 82 c7 3e 89 d5 b8 3e
       1.0278513 1.3589162 0.38967106 0.36100414
000160 a9 bb 3c 40 dd f7 53 3f 72 00 28 3f 33 a6 95 3f
       2.9489539 0.82800084 0.6562568 1.1691345
000170 d1 ea 11 40 37 e1 80 3f 15 54 d4 3e 26 39 ec 3f
       2.279957 1.006873 0.414704 1.845494
000180 64 ec ca 3f d7 84 1a 3f 16 29 83 3f c6 29 18 40
       1.5853391 0.6035895 1.0246913 2.3775496
000190 1c 93 8a 3f 1e 59 77 3e 63 ce 36 40 ba 47 73 40
       1.0826144 0.2415509 2.8563468 3.8012528
0001a0 2a f4 e1 3e 25 f2 c4 3e dd aa 44 40 d4 09 e2 3e
       0.44131595 0.38465992 3.0729287 0.44148123
0001b0 73 4a 7d 3f f4 5f 15 40 b9 b1 ba 3f ec 8e b6 3f
       0.98941725 2.3339815 1.4585487 1.4262366
0001c0 77 2f 66 40 3b 26 a3 3e 86 9d 1a 3f 86 3b 89 3f
       3.596647 0.31865105 0.6039661 1.072129
0001d0 0b 37 c2 3e af 56 72 40 09 53 09 3f 09 7b ab 3e
       0.3793262 3.7865407 0.53642327 0.33492306
0001e0 29 ba 0c 40 5b 54 17 40 b3 5e a3 3f 31 97 0b 40
       2.1988623 2.3645236 1.2763275 2.181103
0001f0 4b 13 07 3f 80 4a 6b 3f fb 20 8d 3f ec a6 bd 40
       0.52763814 0.9191055 1.102569 5.926626
