checkpoint_critic.pth (torch, 160530 bytes, 9 tensors)

fcs1.weight f4 [128, 33]
0	0xbeadc8d0	-0.3394227
1	0x4032f1ba	2.7960038
2	0x3e17b6d3	0.14815836
3	0xc0056888	-2.084505
4	0xbdfe307d	-0.12411592
5	0x3f9b221e	1.2119787
6	0xbe482708	-0.19546139
7	0xbea2d5bb	-0.31803688
8	0xbfa2e8c8	-1.2727289
9	0xbfd6e093	-1.6787285
10	0x3d8bb79d	0.06822131
11	0x3f1bc2cd	0.6084412
12	0xbe0183d5	-0.12647946
13	0xbee43b45	-0.4457647
14	0xbfbfe228	-1.4990892
15	0xbf351ee8	-0.70750284
16	0xbeebddfb	-0.46067795
17	0x3e2c41c1	0.16821958
18	0x3c8e5d7d	0.017378563
19	0x3db669e5	0.089069165
20	0xbc564089	-0.01307691
21	0xbd5e8cef	-0.054333623
22	0xbdf97096	-0.12179677
23	0xbf602174	-0.87551045
24	0xbe43610a	-0.19079986
25	0xbf2bdf16	-0.6713728
26	0x3f9d075a	1.2267869
27	0xbda2fa2f	-0.07957875
28	0x3e57d66d	0.2107789
29	0xbd8bf6e4	-0.068342
30	0xbd1c37c5	-0.038139123
31	0x3cfb7f4f	0.030700354
32	0xc1173651	-9.450761
33	0xbf07df11	-0.5307475
34	0x3fc0c9ff	1.5061644
35	0x3fcafb2d	1.5857903
36	0xbfbe5464	-1.4869504
37	0xbece56d6	-0.40300626
38	0x3e028173	0.12744693
39	0x40486ef2	3.1317716
40	0x3f119dbb	0.568813
41	0x3e47e27f	0.19519995
42	0xbfefbe79	-1.8730003
43	0xbed7f265	-0.4217712
44	0x3fbc8070	1.4726696
45	0x3f4eb833	0.80749816
46	0xbf366b35	-0.71257335
47	0x3f45878b	0.7715995
48	0x3f81c0ef	1.0137004
49	0x3f67e903	0.9058992
50	0xbe169f97	-0.14709316
51	0xbe76b906	-0.24094018
52	0xbf26a5d0	-0.6509676
53	0x3df33efd	0.118772484
54	0x3f808763	1.0041317
55	0xbe1ab79f	-0.15109108
56	0x3dde9fe9	0.10870344
57	0x3e5db957	0.21652733
58	0x3f52e619	0.8238235
59	0x3fdb9af9	1.7156669
60	0xbcf891e6	-0.030343007
61	0xbeaa0c0a	-0.3321231
62	0x3d3f911d	0.04676925
63	0xbbc5a32e	-0.0060314154
64	0xbd73bf50	-0.05950862
65	0x40c4a058	6.144573
66	0xbfdde5cf	-1.7335757
67	0xc0003455	-2.003194
68	0x3fccbd63	1.5995296
69	0x3ffbd0e8	1.9673128
70	0xbe7f2838	-0.24917686
71	0x3f265448	0.64972353
72	0xbe9be1d9	-0.30445746
73	0x3da9f356	0.08298366
74	0xbec3663e	-0.38163942
75	0xbf279455	-0.6546071
76	0xbddc89e2	-0.107684866
77	0xbf1ba9ce	-0.60805976
78	0x3e228014	0.1586917
79	0x3f87119b	1.0552248
80	0xbdae30d1	-0.08505405
81	0xbfb23657	-1.3922833
82	0x3d909159	0.07058973
83	0xbf0de959	-0.55434185
84	0xbfc93fb9	-1.5722572
85	0xbded4722	-0.11585833
86	0xbf075ab7	-0.52872795
87	0xbe477d8e	-0.19481489
88	0xbf184527	-0.5948052
89	0x3e4753b2	0.19465521
90	0x3f972496	1.180804
91	0xbe0ca62c	-0.13735265
92	0x3f810a98	1.0081358
93	0x3d210a66	0.039316557
94	0x3fef37a7	1.8688859
95	0xbd43c398	-0.047793955
96	0xbd37093f	-0.044686552
97	0xbd29d900	-0.041466713
98	0xc0a1e6f6	-5.0594435
99	0x3df9c2ab	0.12195333
100	0xbfdcbf2e	-1.7245843
101	0x40016499	2.021765
102	0x3e970f0b	0.29503664
103	0x3e9d4c94	0.30722487
104	0xbfb7daa3	-1.4363598
105	0xbf1456bb	-0.5794484
106	0xbf16b176	-0.58864534
107	0xbf1edf15	-0.62059146
108	0x3dddeadb	0.10835811
109	0x3e1460a9	0.14489998
110	0x3e68dcff	0.22740553
111	0x3dcbf140	0.09958124
112	0xbf752bac	-0.95769763
113	0x40a5a51b	5.1764045
114	0xbfd9ac85	-1.7005774
115	0xbe36bb77	-0.1784495
116	0x3e7385c4	0.23781496
117	0x3f226c4c	0.634465
118	0x3e11d199	0.14240111
119	0xbc009fd4	-0.007850606
120	0x3f0b25fe	0.54354846
121	0x3d4046ed	0.04694264
122	0x3e999541	0.29996684
123	0x3f7d8f0f	0.99046415
124	0x3b3943bb	0.002826913
125	0x3efbb34f	0.4916024
126	0x3d82dba5	0.0638955
127	0x3e78c5dd	0.24294229
128	0x3cf81827	0.030284954
129	0x3c6541a7	0.0139927035
130	0x3cd33fd0	0.025787264
131	0x40476eb3	3.1161315
132	0x401c9d7e	2.4471126
133	0x3f56efa4	0.8395941
134	0xbf1db359	-0.6160179
135	0xbed3a314	-0.41335356
136	0x3f400c57	0.7501883
137	0x3e87d578	0.2653005
138	0x3e956a85	0.2918283
139	0xbe8126e7	-0.25224993
140	0xc02c9b46	-2.6969771
141	0x3fa54550	1.2911777
142	0x3fb54aab	1.4163412
143	0xbefaac1b	-0.4895943
144	0xbf06909c	-0.52564406
145	0xbf7bcbb4	-0.983577
146	0xbea0ff08	-0.31444573
147	0x3f2e9d43	0.6820871
148	0x3e4eeb0f	0.20206855
149	0xbd35c9a8	-0.044381768
150	0xbdff4914	-0.124651104
151	0xbf08960e	-0.53353965
152	0x3e35dee4	0.17760807
153	0x3e3b679d	0.18301244
154	0x3e56303e	0.2091684
155	0xbff3114b	-1.8989652
156	0xbde8110d	-0.11331377
157	0xbf19efe6	-0.6013168
158	0xc007cb9a	-2.1218019
159	0xbcd7c9df	-0.026341377
160	0xbd588b3f	-0.05286717
161	0x3d8eb2e2	0.06967713
162	0xbd88c741	-0.0667863
163	0x3d64cfe5	0.055862326
164	0x408c28da	4.379987
165	0xbd35efd7	-0.044418182
166	0x3fc869f3	1.5657333
167	0xbf8ce5b3	-1.1007599
168	0xbe9c16f7	-0.3048627
169	0xbec4d379	-0.3844259
170	0xbfb800b3	-1.4375213
171	0x3e34b6e6	0.17647895
172	0xbe1f2901	-0.15542985
173	0xbf85c1e0	-1.0449791
174	0x3f0531da	0.5202919
175	0xbf054d56	-0.5207113
176	0x3f2d9d45	0.678181
177	0x3f00e28d	0.5034569
178	0xbf606dec	-0.8766773
179	0xbeb4cc2c	-0.3531202
180	0x3fe4f5d6	1.7887523
181	0xbda22fcb	-0.07919272
182	0xbe00ae98	-0.12566602
183	0xbf3a799a	-0.728418
184	0xbdd86034	-0.10565224
185	0x3ea7807b	0.3271521
186	0x3de1467f	0.10999774
187	0x3df84377	0.12122243
188	0xbf769ecf	-0.9633607
189	0xbeccf6db	-0.40032086
190	0x3ec49d26	0.38401145
191	0x3fb2f1e4	1.3980069
192	0xbd9ec1cf	-0.0775181
193	0xbf2ac6fa	-0.66709864
194	0x3d3e4118	0.046448797
195	0xbd5be78b	-0.053687613
196	0x3d49db0e	0.049281172
197	0x41175e46	9.460516
198	0xbf99920a	-1.1997693
199	0x3f19a7f1	0.60021883
200	0x3fc33f2a	1.5253651
201	0xbe087f71	-0.13329865
202	0x3eb9e854	0.36310065
203	0x3ebb68eb	0.36603484
204	0xbe14d2ba	-0.14533511
205	0xbe3c8fd7	-0.18414246
206	0xbdc7eb37	-0.097616605
207	0x3f2cf399	0.675592
208	0xbec99e8e	-0.3937878
209	0x3db931f8	0.09042734
210	0x3e5080c4	0.2036162
211	0x3fe3928e	1.77791
212	0x3ebf1740	0.37322426
213	0xc014beff	-2.3241575
214	0xbf948a60	-1.1604729
215	0xbdbdb9b0	-0.09263933
216	0x3de5ae73	0.11214914
217	0x3e5b912d	0.21442099
218	0xbd9ae90c	-0.075639814
219	0xbe7516dc	-0.23934501
220	0x3d1f7e51	0.038938824
221	0x3dc28dbb	0.09499689
222	0x3e136e1e	0.14397475
223	0xbe025a17	-0.12729679
224	0xbf9c5bd9	-1.221553
225	0xb9902165	-0.000274907
226	0x40008410	2.0080605
227	0x3d8233d8	0.06357545
228	0x3d18690e	0.037209563
229	0xbce4461c	-0.027865462
230	0x3fe7e8c8	1.8117914
231	0x3f33610b	0.7006995
232	0xbf38f9c6	-0.72256124
233	0x3e9bd675	0.30437055
234	0x3f0a2aff	0.53971857
235	0xbea6bfb3	-0.3256813
236	0x3f4d71ed	0.8025196
237	0x3f976703	1.1828312
238	0xbed639f1	-0.4184108
239	0x3f68eca4	0.90986085
240	0x4002410c	2.0352201
241	0x3f8356b0	1.026083
242	0xbf390b10	-0.72282505
243	0xbe6c1a54	-0.23056918
244	0xbfa75103	-1.3071598
245	0x3f420e40	0.75802994
246	0x3fcdd188	1.6079569
247	0xbdf5022c	-0.11963305
248	0xbed1d572	-0.40983158
249	0x3f6b8103	0.9199373
250	0xbee1f8e7	-0.4413521
251	0x3c642983	0.013925913
252	0xbef93f2a	-0.48681003
253	0xbfac2971	-1.3450147
254	0xbf83a207	-1.0283822
255	0xbebf64d8	-0.37381625

fcs1.bias f4 [128]
0	0x3d9ce198	0.07660216
1	0x3e0e1375	0.1387461
2	0x3e2a5a3e	0.16635987
3	0x3e19ce10	0.15020013
4	0xbdc478ce	-0.09593354
5	0x3d241f19	0.04006872
6	0xbddfcfdb	-0.10928317
7	0x3b82bfd3	0.0039901524
8	0x3e138b0e	0.14408514
9	0x3daf4326	0.085577294
10	0xbe241e01	-0.1602707
11	0xbd997c30	-0.0749439
12	0xbe160f73	-0.14654331
13	0x3da833e1	0.0821302
14	0xbcb51449	-0.0221044
15	0xbe021cdd	-0.12706323
16	0xbd650698	-0.05591449
17	0x3d69c431	0.05707187
18	0x3c8b46c4	0.017001517
19	0x3e281d0d	0.16417332
20	0xbb118123	-0.0022202216
21	0x3d5f2755	0.05448087
22	0xbd56ef94	-0.052474573
23	0x3cac68f0	0.021046132
24	0x3bccbd2b	0.0062481365
25	0x3e18fd4c	0.14940375
26	0x3d955309	0.07291228
27	0xbdc9dcfe	-0.09856604
28	0xbe1e52bf	-0.15461253
29	0xbe29ab41	-0.16569234
30	0xbd8108e7	-0.06300526
31	0x3cb59037	0.022163494
32	0x3e283a32	0.1642845
33	0xbc8bd5b6	-0.017069679
34	0x3d8be5ac	0.06830916
35	0x3db56f56	0.08859126
36	0xbe080a52	-0.13285187
37	0xbe13665c	-0.14394516
38	0x3d8756b9	0.06608338
39	0x3da5ff4e	0.08105336
40	0xbda6432a	-0.08118279
41	0x3ce00fd4	0.027351297
42	0xbe2e4d70	-0.17021728
43	0x3b11e3fb	0.002226113
44	0x3d2f1f0b	0.042754214
45	0x3ad60fe8	0.0016331645
46	0xbce22ad3	-0.02760831
47	0x3d9489b4	0.07252827
48	0xbd43a32a	-0.047763027
49	0x3e048167	0.12939988
50	0xbe196a3c	-0.14981931
51	0xbdc9dd3e	-0.09856652
52	0xbe1565b4	-0.14589578
53	0xbe210617	-0.1572498
54	0x3e04ca79	0.12967862
55	0xbd2f7467	-0.04283562
56	0xbe0bffbc	-0.13671774
57	0x3d13fcf7	0.036129918
58	0xbe06db25	-0.13169535
59	0x3c15b17d	0.009136555
60	0x3da8f118	0.0824911
61	0xbd15244e	-0.036411576
62	0x3db73355	0.08945338
63	0x3d1399e0	0.03603542
64	0xbe0ef754	-0.13961536
65	0x3d0be412	0.03415305
66	0x3de56c25	0.112022676
67	0xbd2646d6	-0.0405949
68	0x3c86a3b3	0.01643548
69	0x3cb60c94	0.022222795
70	0x3c6e6c85	0.01455224
71	0x3d395d0e	0.04525476
72	0xbe2a911c	-0.16656917
73	0x3e07454c	0.13210028
74	0x3d9b7e74	0.075924784
75	0x3cb1427e	0.021638151
76	0x3d05660c	0.032568023
77	0xbe0fd2d9	-0.14045276
78	0xbd4c1472	-0.049824186
79	0xbbffe2a8	-0.007809002
80	0x3d28f65a	0.041250564
81	0xbdc3e5e4	-0.095653325
82	0x3c94fb8f	0.018186359
83	0xbd5d8335	-0.054080207
84	0x3e01d2e3	0.12678103
85	0xbe18d2e4	-0.14924198
86	0x3c9baef1	0.019004317
87	0x3df1e34f	0.11810934
88	0xbe0a8783	-0.13528256
89	0xbba1ae2f	-0.0049340944
90	0x3da4c7a3	0.0804589
91	0x3d905937	0.070482664
92	0x3ca73770	0.020412177
93	0x3d919b8c	0.07109746
94	0xbdf7d778	-0.12101644
95	0x3e14a1ce	0.14514849
96	0x3b8543dd	0.004066928
97	0x3de60365	0.11231116
98	0x3d1a9f6a	0.037749685
99	0xbc9e4b59	-0.019323038
100	0x3d99502e	0.07485996
101	0x3e2918cd	0.16513367
102	0x3e2fb8aa	0.17160287
103	0xbe16480c	-0.14675921
104	0x3c2c6c21	0.010523827
105	0xbe004228	-0.12525237
106	0x3dced965	0.101000585
107	0x3dffbddd	0.124873854
108	0xbdfaed24	-0.12252262
109	0xbc2798eb	-0.01022933
110	0x3df56754	0.11982599
111	0x3debf363	0.11521032
112	0xbe071012	-0.13189724
113	0x3def27ec	0.11677536
114	0xbcfea63c	-0.031085126
115	0xbe173134	-0.14764863
116	0x3d0d6006	0.034515403
117	0x3da4de73	0.08050241
118	0x3dd6d85d	0.10490487
119	0xbdf27db4	-0.11840382
120	0xbe01056e	-0.12599728
121	0xbdef6f0b	-0.11691102
122	0x3dc9b1ed	0.0984839
123	0xbe1b8b33	-0.15189819
124	0xbabefdd5	-0.0014571497
125	0xbd515b86	-0.051112674
126	0x3d9c0b66	0.076193616
127	0x3d0b0937	0.033944335

fc2.weight f4 [256, 132]
0	0xbd329588	-0.043599635
1	0xbd52cf94	-0.051467493
2	0x396c153d	0.00022514626
3	0xbcc2c8e2	-0.023777429
4	0xbdc48af7	-0.09596818
5	0xbd05b0be	-0.032639258
6	0xbb2548f9	-0.0025220497
7	0x3d34f8de	0.04418265
8	0xbcc38145	-0.023865351
9	0xbbd7efb1	-0.0065898527
10	0x3d338f87	0.04383805
11	0xbcf53e1d	-0.029936844
12	0xbd6b81cd	-0.057496835
13	0xbd791f05	-0.0608206
14	0x3cc647e8	0.02420421
15	0xbda6596d	-0.08122525
16	0xbdae1bb0	-0.08501375
17	0xbbcb5f98	-0.006206464
18	0xbd33dbbc	-0.043910727
19	0xbd7e5747	-0.062094953
20	0xbcf0e8d9	-0.029407905
21	0xbca4f07f	-0.020134209
22	0xbdd931f6	-0.106052324
23	0xbbd705a4	-0.0065619517
24	0xbd5cde59	-0.053922985
25	0xbb725a57	-0.0036980116
26	0x3c2988a7	0.010347522
27	0xbd127902	-0.035759933
28	0x3d092f6c	0.03349249
29	0xbd478da6	-0.04871907
30	0xbdde6d2b	-0.10860666
31	0xbdac9362	-0.084265485
32	0xbbf49693	-0.007464239
33	0xbd042add	-0.03226744
34	0xbc2195be	-0.0098623615
35	0xbd786aa1	-0.060648564
36	0x3b9e9e04	0.0048406143
37	0xbd350613	-0.044195246
38	0xbd798956	-0.06092199
39	0x3d3d6cca	0.046246327
40	0x3d1c7ec3	0.038206827
41	0x3cd41032	0.025886629
42	0x3d14bb4a	0.036311425
43	0xbd7fe885	-0.062477607
44	0xbdc67d8d	-0.09691916
45	0xbd6b8666	-0.05750122
46	0x3c80d1db	0.015725067
47	0xbcbe3636	-0.02321921
48	0xbc82297c	-0.015888922
49	0xbcce1b17	-0.025159402
50	0xbd26bbc4	-0.04070641
51	0xbd3df0a9	-0.04637209
52	0xbe165309	-0.14680113
53	0x3ce12ef3	0.027488207
54	0xbd3f975f	-0.046775218
55	0xbcaa32f7	-0.020776255
56	0xbd602869	-0.054726038
57	0xba05ccbd	-0.0005104056
58	0xbd01f657	-0.03172907
59	0xbd85e3c5	-0.06537584
60	0xbd26ecbb	-0.040753108
61	0xbcd46772	-0.025928233
62	0xbd3f205b	-0.046661716
63	0xbcd3ba60	-0.025845706
64	0xbccf116e	-0.025276866
65	0xbdc1e03d	-0.09466598
66	0x3d286597	0.04111251
67	0xbc642de8	-0.0139269605
68	0x3ba30398	0.0049747936
69	0xbd897126	-0.067110345
70	0xbcc98061	-0.024597349
71	0xbc807e5e	-0.015685257
72	0xbda95f2e	-0.08270107
73	0x3cd3832c	0.025819384
74	0xbd5a0aca	-0.053232946
75	0x3c401092	0.011722701
76	0xbd52ae16	-0.051435553
77	0xbc4a484e	-0.01234634
78	0xbdaae49d	-0.08344386
79	0xbd2bd0a6	-0.04194703
80	0xbd582f56	-0.052779518
81	0xbd2b08a4	-0.041756287
82	0xbd5fac8b	-0.05460791
83	0xba86b7b3	-0.0010278135
84	0xbc2ed846	-0.010671681
85	0x3cc7d348	0.024392739
86	0xbcb9deb6	-0.022689205
87	0xbd75b101	-0.059983257
88	0xbc7bbc77	-0.015364758
89	0x3bcc20bc	0.006229488
90	0x3ba24f09	0.0049532694
91	0x3c511159	0.012760484
92	0x3b6a73b1	0.0035774524
93	0x3ccd8d97	0.02509193
94	0xbc2b64cd	-0.0104610445
95	0xbcb827fe	-0.022480007
96	0xbd24e888	-0.04026082
97	0x3b45324e	0.0030089798
98	0xbc8f5397	-0.017495913
99	0xbd7cde0a	-0.06173519
100	0xbd80c8a2	-0.06288268
101	0xbd0b9788	-0.03408006
102	0xbd6223eb	-0.055210035
103	0x3c8c68e3	0.017139858
104	0x3cd4be6b	0.025969705
105	0xbd284323	-0.04107965
106	0xbd3124ae	-0.04324787
107	0x3cbb2e6e	0.022849288
108	0xbde27faf	-0.1105951
109	0xbd3646e9	-0.04450122
110	0xbd6b6353	-0.05746777
111	0x3ca21801	0.019786837
112	0xbd6dd993	-0.058068823
113	0xbbbfaeb3	-0.005849683
114	0xbd736c1b	-0.05942927
115	0xbca9ebf9	-0.020742403
116	0xbd262bad	-0.040568996
117	0xbd5209b4	-0.051278785
118	0xbd72ebab	-0.05930678
119	0xbd5e184e	-0.054222398
120	0xbbbc9ac1	-0.005755753
121	0x3c87534d	0.016519213
122	0xbd2aff1d	-0.0417472
123	0xbbd46119	-0.0064813015
124	0xbd35dd91	-0.044400755
125	0x3b58691b	0.0033021632
126	0xbdce1b67	-0.1006382
127	0xbd637a38	-0.05553648
128	0xbc8a7762	-0.01690263
129	0x3c405d85	0.011741047
130	0x3c5a6c77	0.013331524
131	0x3d25d87c	0.04048966
132	0xbd606e9c	-0.054792985
133	0xbe249f19	-0.16076316
134	0xbd3b33df	-0.045703765
135	0xbdc7eb13	-0.09761634
136	0xbd9443ee	-0.07239519
137	0xbd8c8ecd	-0.068631746
138	0xbd25c7a4	-0.040473595
139	0xbd0e5397	-0.034747686
140	0xbc614979	-0.013750427
141	0x3cbe42f2	0.023225281
142	0xbdcef0fe	-0.10104559
143	0xbc811aac	-0.015759788
144	0xbd92c3bc	-0.071662396
145	0xbdfd9064	-0.12381056
146	0xbd4a4f4f	-0.04939204
147	0xbd06568b	-0.032797378
148	0xbd1d1ff6	-0.03836056
149	0xbcc1d07c	-0.023658983
150	0xbc5d79b9	-0.0135177905
151	0xbd5c9c96	-0.05386027
152	0xbdd9812d	-0.106203414
153	0x3d59b3f8	0.053150147
154	0xbd54368e	-0.05180984
155	0xbd9d388e	-0.076768026
156	0x3c014004	0.007888798
157	0x3d278505	0.04089834
158	0xbdcfcdac	-0.10146651
159	0xbd9f0571	-0.0776471
160	0xbcf5b0d2	-0.029991541
161	0xbe03b31d	-0.12861295
162	0xbd8dce85	-0.06924156
163	0xbd4a4d7f	-0.049390312
164	0xbd186536	-0.037205897
165	0xbd64dc18	-0.05587396
166	0x3a38c701	0.0007048697
167	0x3ce734f8	0.0282235
168	0xbd9089c5	-0.070575275
169	0xbc65b5c0	-0.014020383
170	0x3bfe50e0	0.007761106
171	0x3c543cc9	0.012953945
172	0xbdd71908	-0.10502821
173	0x3d041416	0.032245718
174	0xbc392a7b	-0.011301632
175	0xbe16cf6d	-0.14727564
176	0xbdb9e9d0	-0.09077799
177	0xbe197348	-0.14985383
178	0xbd6a4504	-0.057194725
179	0xbda8cd24	-0.082422525
180	0xbe16c7e9	-0.14724697
181	0xbe2af1f6	-0.16693863
182	0xbdb7da46	-0.08977179
183	0x3bdd340c	0.0067505892
184	0xbd899d2a	-0.0671943
185	0xbd50ec32	-0.051006503
186	0xbdedd99e	-0.11613773
187	0xbde069c7	-0.109576754
188	0xbc9f801c	-0.019470267
189	0xbc97ca38	-0.018529043
190	0xbcf6e0ff	-0.030136583
191	0xbd5733a2	-0.052539475
192	0x3d101dcd	0.03518467
193	0xbbdaae67	-0.0066736224
194	0xbde517cd	-0.1118618
195	0xbddbb4bd	-0.107278325
196	0xbcfa3f34	-0.030547716
197	0xbe44b74b	-0.19210546
198	0xbdbef61e	-0.09324287
199	0xbde14c54	-0.110008866
200	0x3d1cfc6c	0.038326666
201	0xbd83bcfa	-0.06432529
202	0xbca5a0c0	-0.020218253
203	0xbcf55db1	-0.029951902
204	0xbd6f220b	-0.058382075
205	0x3d1e2a1c	0.038614377
206	0xbe025e8a	-0.12731376
207	0xbca2b5c9	-0.019862073
208	0xbe3b2449	-0.1827556
209	0xbe72f2e8	-0.23725474
210	0x3d0fa81e	0.03507244
211	0xbd62c54c	-0.05536394
212	0xbe0fcd8b	-0.14043252
213	0xbdc5a7e6	-0.09651165
214	0xbd0fdef3	-0.03512473
215	0xbe29cf93	-0.1658309
216	0x3cea507d	0.028602833
217	0x3c8ad116	0.016945403
218	0xbd3f99db	-0.046777587
219	0xbd04533b	-0.032305937
220	0xbd9c276e	-0.07624708
221	0xbdf09de9	-0.11748869
222	0xbceaf5a0	-0.028681576
223	0x3d16621f	0.03671467
224	0xbd00120e	-0.03126722
225	0xbe0e1496	-0.1387504
226	0xbd74641b	-0.05966578
227	0xbe3ef27a	-0.18647185
228	0xbd1b2ffa	-0.03788755
229	0x3d719ddd	0.05898844
230	0xbc228ce3	-0.009921285
231	0xbdd779ed	-0.10521302
232	0xbd72caf6	-0.05927559
233	0xbddc1245	-0.10745672
234	0xbd65e621	-0.05612767
235	0x3cc18bd7	0.023626251
236	0xbd7e6082	-0.062103756
237	0xbd83fbd7	-0.06444519
238	0xbd556410	-0.05209738
239	0xbb95243c	-0.0045514386
240	0xbd2834af	-0.041065868
241	0xbd9df0ea	-0.07711966
242	0xbd18bcae	-0.037289314
243	0xbdd61135	-0.10452501
244	0xbc3264cc	-0.01088829
245	0xbc7fb54e	-0.015607191
246	0xbb26dd4c	-0.0025461493
247	0xbd8c459a	-0.06849213
248	0xbc71314e	-0.014721228
249	0xbd4fc264	-0.050722495
250	0xbdef059e	-0.11670993
251	0xbdc25a7c	-0.09489915
252	0xbd51c15e	-0.0512098
253	0x3c05c618	0.008164905
254	0xbda97d16	-0.082758114
255	0xbd154d3b	-0.036450606

fc2.bias f4 [256]
0	0xbe005066	-0.1253067
1	0xbd35b22c	-0.04435937
2	0xbdaa71b8	-0.083224714
3	0xbe02d114	-0.1277507
4	0xbda9fbab	-0.08299955
5	0xbe2885c7	-0.16457282
6	0x3eb0c8d9	0.34528235
7	0xbdd8c7bf	-0.105849735
8	0x3ed57050	0.4168725
9	0xbd8ea955	-0.06965891
10	0xbe07e9e4	-0.13272816
11	0x3b214f8e	0.0024614069
12	0xbd41bd53	-0.047299694
13	0xbd906108	-0.07049757
14	0xbd82f3b6	-0.063941404
15	0xbd37a7d8	-0.044837803
16	0x3a9d1566	0.0011984527
17	0xbde363ef	-0.11103045
18	0xbd99131a	-0.074743465
19	0xbd9214a5	-0.07132844
20	0xbddeb9a8	-0.10875255
21	0xbde0d6bc	-0.10978457
22	0xbd818042	-0.06323291
23	0xbdb44d3f	-0.08803796
24	0xbda2480a	-0.079238966
25	0xbe180bcd	-0.14848252
26	0x3f503913	0.8133709
27	0xbd999b17	-0.07500284
28	0xbd70ce9d	-0.05879079
29	0xbd2eda42	-0.042688616
30	0xbdea5eff	-0.114439
31	0xbe182b29	-0.14860214
32	0xbe19e154	-0.15027362
33	0xbd17d8a3	-0.037071835
34	0xbc94f646	-0.018183839
35	0xbe085446	-0.13313398
36	0xbe0e6677	-0.13906275
37	0xbdbd927a	-0.09256454
38	0xbe312aed	-0.17301531
39	0xbd8140ff	-0.06311225
40	0xbda8d77c	-0.082442254
41	0xbdd91901	-0.10600472
42	0xbdbc6c79	-0.09200377
43	0xbe09d0f2	-0.13458613
44	0xbe353235	-0.17694934
45	0xbd73eff5	-0.059555013
46	0xbd815bee	-0.06316362
47	0xbd1e5660	-0.038656592
48	0xbe0e6330	-0.13905025
49	0xbd28751d	-0.041127313
50	0xbd69d17c	-0.057084545
51	0xbf616aab	-0.8805339
52	0xbd876341	-0.06610728
53	0xbdfa341a	-0.12216969
54	0xbe5a001c	-0.21289104
55	0xbe33414d	-0.17505379
56	0xbe1c4936	-0.15262303
57	0xbdad9681	-0.08475972
58	0xbda74f86	-0.08169465
59	0xbdbe49c2	-0.09291412
60	0xbc6cf77a	-0.0144633
61	0xbd4bfe8b	-0.049803298
62	0xbd8f03d8	-0.06983155
63	0x3f32ca1f	0.6983966
64	0xbdabbacd	-0.08385239
65	0x3ecf1f4f	0.40453574
66	0xbd5df398	-0.054187387
67	0xbe554097	-0.2082542
68	0xbcc7e530	-0.024401277
69	0xbd501189	-0.050797973
70	0xbd17edcd	-0.03709202
71	0xbd4c805b	-0.049927097
72	0x3f861d66	1.0477722
73	0xbdb29bb0	-0.08721101
74	0x3d3f4807	0.04669955
75	0xbdcba897	-0.09944265
76	0xbd876fc4	-0.066131145
77	0xbde38935	-0.111101545
78	0x3f9173f5	1.1363512
79	0xbe10a98b	-0.14127176
80	0xbe1af78f	-0.15133499
81	0x3e2a4769	0.16628803
82	0xbe1abcae	-0.15111038
83	0xbdf7d48e	-0.121010885
84	0xbe1e4d01	-0.15459062
85	0xbd94a68e	-0.0725833
86	0x3f99426b	1.1973394
87	0xbe09b064	-0.13446194
88	0xbd5096b0	-0.050924957
89	0xbd3d53ba	-0.046222426
90	0xbd87cf72	-0.06631364
91	0xbd5688ff	-0.052376743
92	0xbd988ba6	-0.07448511
93	0xbdd725a2	-0.10505225
94	0xbd56b657	-0.052419987
95	0xbdd562d3	-0.1041924
96	0xbdfe080c	-0.124038786
97	0xbe0393d9	-0.12849368
98	0xbee2784b	-0.442324
99	0xbdcee34d	-0.10101948
100	0xbebe0648	-0.37114167
101	0x3f00e5b2	0.5035049
102	0xbe86ce7e	-0.26329416
103	0xbddfd9f8	-0.10930246
104	0xbe3210ab	-0.17389171
105	0xbde97e36	-0.11401026
106	0xbba607e2	-0.0050668577
107	0xbdf4be2e	-0.119503364
108	0xbdc27e44	-0.094967395
109	0xbdc4de25	-0.09612683
110	0xbdfee128	-0.12445289
111	0xbd3d2aef	-0.046183523
112	0xbce86327	-0.028367592
113	0xbdd96b3a	-0.10616155
114	0xbdb01a01	-0.0859871
115	0xbe60393b	-0.21896832
116	0xbe06267e	-0.13100621
117	0xbd85d518	-0.06534785
118	0xbd9a6229	-0.07538254
119	0xbdaf9c74	-0.08574763
120	0xbd8b68bb	-0.06807085
121	0xbdcc7ab4	-0.09984341
122	0x3e956e43	0.29185686
123	0x3f8390f5	1.0278612
124	0xbd343997	-0.044000234
125	0xbe1f7f07	-0.15575801
126	0xbdde637c	-0.10858819
127	0xbd33f099	-0.043930624
128	0xbd08914a	-0.033341683
129	0xbdd34f5d	-0.10317872
130	0xbde2e0f9	-0.110780664
131	0xbdb0f1ad	-0.08639846
132	0xbdf20df1	-0.11819065
133	0x3daf3194	0.08554378
134	0x3cf370fe	0.029716965
135	0xbd4eafbf	-0.050460573
136	0x3f81d8ef	1.0144328
137	0xbdb6647f	-0.08905887
138	0x3d5322a4	0.051546708
139	0xbe12cdbd	-0.14336295
140	0x3e90797c	0.28217685
141	0xbc9c1cd5	-0.019056717
142	0xbb570673	-0.003281024
143	0xbd3e26d9	-0.046423767
144	0xbdaddfbf	-0.08489942
145	0xbdb4c6bd	-0.08826969
146	0x3c136848	0.008997031
147	0xbd267541	-0.040639166
148	0xbd120b8b	-0.03565554
149	0xbbd0376e	-0.006354264
150	0xbdfb3215	-0.12265412
151	0xbd874dad	-0.06606612
152	0xbde27a0b	-0.11058434
153	0xbda188d0	-0.07887423
154	0xbdf2e2ab	-0.1185964
155	0xbd961509	-0.07328231
156	0xbe000ebf	-0.12505625
157	0xbdbf10f4	-0.093294054
158	0xbd80f5e2	-0.062968984
159	0xbce3a390	-0.027787954
160	0xbcfe9f91	-0.031081947
161	0xbdbc7da4	-0.092036515
162	0xbdf47d0c	-0.11937913
163	0xbd9cca2a	-0.07655747
164	0xbdfa9600	-0.122356415
165	0xbe12e14b	-0.14343755
166	0xbd9e29bc	-0.07722804
167	0xbdbe329a	-0.09286995
168	0xbe149b0a	-0.14512268
169	0xbd8cc89d	-0.068742014
170	0xbd03076d	-0.031989504
171	0xbde686bc	-0.11256167
172	0x3f2148b6	0.63001573
173	0xbdeb6901	-0.11494637
174	0xbdf4ef90	-0.119597554
175	0xbe24ca93	-0.16092901
176	0x3f2ca344	0.67436624
177	0xbdd28146	-0.10278563
178	0xbe0bfe5d	-0.1367125
179	0x3ed9c98d	0.42536584
180	0xbd84a37a	-0.06476493
181	0xbc8b25d6	-0.016985815
182	0xbe004397	-0.12525783
183	0x3e4e8982	0.20169643
184	0xbd73d531	-0.059529487
185	0xbd098969	-0.03357831
186	0x3e24eb83	0.16105466
187	0xbd247c29	-0.04015747
188	0xbcc73090	-0.024315149
189	0xbd966352	-0.073431626
190	0xbe0479b7	-0.12937056
191	0xbdcb805a	-0.099365905
192	0xbd454900	-0.04816532
193	0xbdf7a687	-0.120923094
194	0x3f72f5c5	0.94906265
195	0xbdc9b438	-0.09848827
196	0xbb54ea01	-0.003248811
197	0xbd2221e3	-0.0395831
198	0x3e1c1483	0.152422
199	0xbd6fd89e	-0.05855619
200	0xbe14a6a6	-0.14516696
201	0xbe08e793	-0.13369589
202	0xbd8ccf51	-0.0687548
203	0x3eefcf56	0.46837872
204	0xbd6b7170	-0.05748123
205	0xbdb39624	-0.087688714
206	0x3e8976b1	0.26848367
207	0xbdc03cf5	-0.09386627
208	0xbd9ba87b	-0.076004945
209	0xbdb2cd75	-0.08730594
210	0xbe0c094d	-0.13675423
211	0xbdb3bd59	-0.087763496
212	0xbe04fa17	-0.12986027
213	0xbd06ad66	-0.03288021
214	0xbdc242bd	-0.094853856
215	0xbdd57a79	-0.104237504
216	0xbe07f6ea	-0.13277784
217	0x3f555b67	0.83342594
218	0xbd9e3e0c	-0.07726678
219	0xbe007b57	-0.1254705
220	0xbd9a1ea4	-0.075253755
221	0xbd8c48cf	-0.06849825
222	0xbe01878c	-0.12649363
223	0xbd1a3caf	-0.03765553
224	0xbe117b0d	-0.14207096
225	0xbe0f0e5a	-0.13970318
226	0xbd4e8901	-0.050423626
227	0xbe991049	-0.29895237
228	0x3ecea434	0.40359652
229	0xbc8d4926	-0.017246794
230	0x3e1e3794	0.15450889
231	0xbe07f7bb	-0.13278095
232	0xbdf32300	-0.1187191
233	0x3e9acc1a	0.30233842
234	0xbe0e6134	-0.13904268
235	0xbd7d066f	-0.061773714
236	0xbe8017e4	-0.25018227
237	0xbde2895c	-0.110613555
238	0x3ea3ad57	0.31968185
239	0xbe30386e	-0.17209026
240	0xbd81a182	-0.06329633
241	0xbd92a36e	-0.07160078
242	0xbe1c3ae9	-0.15256847
243	0xbd9bba62	-0.07603909
244	0xbd8742c9	-0.06604535
245	0x3fb98f8a	1.449693
246	0xbd999435	-0.074989714
247	0xbe2dc872	-0.16970995
248	0xbdbb2a58	-0.09138936
249	0xbd91dc78	-0.07122129
250	0xbd94e02d	-0.07269321
251	0xbdbcf4c9	-0.092263766
252	0x3ef566bd	0.47929946
253	0xbdcf958c	-0.10135946
254	0xbe077da7	-0.13231526
255	0xbdc9b092	-0.09848131

fc3.weight f4 [1, 256]
0	0xba4a0743	-0.00077067706
1	0xbc5298b1	-0.012853787
2	0xbba36e22	-0.004987494
3	0x3c25fe5e	0.010131447
4	0xbc448b4d	-0.0119961025
5	0x3c668cb7	0.014071635
6	0xbdb54468	-0.08850938
7	0xbc2139ab	-0.009840409
8	0x3c7516f1	0.014959083
9	0x3c9f2091	0.019424709
10	0xba9a68e5	-0.0011780529
11	0x3cb19b69	0.02168055
12	0x3c153106	0.009105926
13	0xbbbdfe18	-0.0057981126
14	0xbc88c098	-0.016693398
15	0xbc27afd7	-0.010234795
16	0x3d13c1b8	0.036073416
17	0x3d025685	0.031820793
18	0x3a42d92f	0.00074328756
19	0x3c33f32d	0.010983271
20	0x3c520b08	0.012820013
21	0xbcf20916	-0.029545348
22	0xbb710522	-0.003677674
23	0x3cddfb40	0.027097344
24	0xbcd6f402	-0.026239399
25	0xbc5a420f	-0.013321414
26	0x3d21cb88	0.039500743
27	0xbcaf5176	-0.021401148
28	0xbc892c18	-0.016744658
29	0x3b018f0b	0.0019769098
30	0x3ba8ef0a	0.005155449
31	0xbb4c10db	-0.0031137976
32	0x3c602d12	0.013682621
33	0xb98de2f4	-0.0002706271
34	0xbac14a33	-0.0014746845
35	0x3cff0bba	0.031133521
36	0xbcdb3587	-0.026758922
37	0x3ce3583a	0.02775203
38	0xbb0b7c2e	-0.0021283734
39	0x3c796fae	0.01522438
40	0x3ccf46e8	0.025302365
41	0xbb7658c6	-0.0037589534
42	0x3cb893fe	0.022531506
43	0xbbd1e4ab	-0.006405433
44	0xbb8e2b40	-0.004338652
45	0x3bfd28ba	0.0077258023
46	0x3bb92be3	0.0056509837
47	0x3b09eb72	0.0021044877
48	0xbb8acb20	-0.00423564
49	0xbbad8ad1	-0.005296089
50	0x3cb69880	0.022289515
51	0xbd90a09b	-0.07061883
52	0x3c93c047	0.01803602
53	0xbb000a80	-0.0019537508
54	0x3c9e5849	0.019329207
55	0xba2f4bd4	-0.00066870195
56	0xbc85aa53	-0.016316568
57	0x3cb978d7	0.022640629
58	0xbca674ba	-0.020319331
59	0x3cca890b	0.02472355
60	0xbbcfa225	-0.006336468
61	0xb7941584	-1.7652994e-05
62	0x3cc5ea24	0.024159499
63	0x3cf97a6e	0.030453887
64	0x3bf39262	0.0074332217
65	0x3d16f57c	0.036855206
66	0xbce2b1c1	-0.02767265
67	0xbc72bfb7	-0.014816216
68	0xbcc45d60	-0.023970306
69	0xbbd658de	-0.0065413555
70	0x3c726214	0.014793891
71	0xbc76d446	-0.015065258
72	0x3ca32da9	0.019919233
73	0xbc9eb665	-0.019374082
74	0x3ca1adc8	0.019736186
75	0x3b930c83	0.0044875755
76	0xbc02c1be	-0.007980762
77	0xbce6ab4b	-0.02815785
78	0x3da05e4b	0.07830485
79	0xbce49c32	-0.027906511
80	0x3c3ef386	0.01165474
81	0x3d35851f	0.044316407
82	0xbc750251	-0.014954166
83	0xbcba6d6f	-0.02275726
84	0xba050d1b	-0.00050755
85	0xbd35f818	-0.044426054
86	0x3d6576bd	0.05602144
87	0xbce47607	-0.027888311
88	0x3bb11497	0.005404066
89	0x3c874e4f	0.016516833
90	0xbc9b1ed0	-0.018935591
91	0xbc3b40f4	-0.01142906
92	0x3ad7b224	0.0016456288
93	0x3cdf2984	0.027241476
94	0x3c08437a	0.008316869
95	0xbcd37fa0	-0.025817692
96	0x3b884565	0.004158663
97	0x3c7deb15	0.015497942
98	0xbd3b0032	-0.045654483
99	0xbc153230	-0.009106204
100	0x3d4fdabf	0.050745722
101	0x3cf6f686	0.030146848
102	0xbd2d37e0	-0.042289615
103	0xbcab691d	-0.020924145
104	0x3b52bb9b	0.0032155279
105	0xbca78399	-0.020448493
106	0xbc59ddf0	-0.013297543
107	0x3be79ba7	0.0070681158
108	0x3bca2f79	0.00617021
109	0xbb39b6dd	-0.0028337755
110	0xb795dbd6	-1.7864553e-05
111	0x399a6dc2	0.00029454945
112	0xbd748b8f	-0.059703406
113	0xbcc8dc41	-0.024519088
114	0x3c4392b9	0.011936837
115	0xbc74edd4	-0.014949281
116	0xbbd9aec2	-0.006643147
117	0x3a73e481	0.0009303764
118	0x39993695	0.000292231
119	0xbc829e88	-0.015944734
120	0xb9bd7741	-0.0003613774
121	0x3be07794	0.0068501923
122	0x3cdf86b8	0.027285919
123	0x3cb9d4d1	0.022684487
124	0x3cd4e562	0.025988284
125	0x3c561751	0.0130670825
126	0x3c30fca6	0.010802424
127	0xbe049b71	-0.12949921
128	0xbc9fe9e1	-0.019520702
129	0x3bbcc1ed	0.0057604224
130	0x3bce79a8	0.0063011236
131	0x3b91879f	0.004441216
132	0xbc0db6e5	-0.0086495625
133	0x3d26771e	0.040640943
134	0x3d637440	0.055530787
135	0xbc9aeb64	-0.018911071
136	0x3dacb1bb	0.08432337
137	0x3b759e03	0.0037478216
138	0xbc7745c9	-0.015092322
139	0xbc2e904d	-0.010654521
140	0xbd330405	-0.043705005
141	0xba97696a	-0.0011551802
142	0xbb1e378e	-0.0024142
143	0x3c208485	0.00979722
144	0xbc433f35	-0.011916925
145	0x3d54553b	0.051839095
146	0x3bd8a4a2	0.0066114226
147	0x3a659a14	0.0008758616
148	0x3c55e4cd	0.013055039
149	0xbd0ee2a3	-0.034884106
150	0x3a30b160	0.0006740298
151	0xbcd72a53	-0.026265299
152	0xbd097203	-0.033555996
153	0x3cfa8bb3	0.030584192
154	0xbbf4a4a9	-0.007465918
155	0xbcc0de7e	-0.023543593
156	0x3cdb72ea	0.026788194
157	0xbcf7a49a	-0.030229855
158	0xbc976819	-0.018482255
159	0x3a9a0e6a	0.0011753563
160	0xbbb52095	-0.0055275657
161	0x3bb15d69	0.0054127467
162	0xbbc01bd8	-0.0058626942
163	0xbc7d5baa	-0.015463749
164	0xbad3d990	-0.0016162861
165	0x3bf4aada	0.007466656
166	0xbbf89ce3	-0.0075870617
167	0x3b145beb	0.0022637795
168	0xbc04b95b	-0.008100833
169	0x3a4fe2dc	0.0007930228
170	0x3cf43499	0.029810237
171	0x3c374aba	0.01118725
172	0xbd9918e1	-0.074754484
173	0x3be57043	0.007001908
174	0x3ce5e89e	0.028065022
175	0xbc031014	-0.007999439
176	0x3d2c4dd0	0.042066395
177	0x3b787942	0.0037914072
178	0x3ce4319e	0.02785569
179	0x3cb6efd9	0.022331165
180	0xbba6a615	-0.0050857165
181	0x3cd2f040	0.025749326
182	0x3bf8ce20	0.0075929314
183	0x3d034348	0.032046586
184	0xb9ea03cb	-0.00044634784
185	0x3d586b94	0.05283697
186	0x3cc923f5	0.024553278
187	0xbb71403b	-0.0036811966
188	0x3c06401c	0.008193996
189	0xbc2dacc2	-0.010600271
190	0x39cc56e6	0.00038974656
191	0xbadb78b7	-0.001674435
192	0xbce19f32	-0.02754173
193	0x3b136e5f	0.0022496206
194	0x3cc9861d	0.024600083
195	0x3c819b8b	0.015821239
196	0x3b96c450	0.004601039
197	0xbc52b49b	-0.0128604425
198	0x3cce6c32	0.025198076
199	0xbd64442d	-0.05572908
200	0x3a205f99	0.0006117761
201	0x3d82a113	0.06378379
202	0x3ceb261f	0.028704701
203	0x3d20607a	0.039154507
204	0xbb565bbf	-0.0032708494
205	0xbc99b02e	-0.018760767
206	0x3cf70070	0.030151576
207	0xbc92ccbe	-0.017919894
208	0x3bdc40e5	0.006721603
209	0x3c5de2f4	0.013542879
210	0xbcaaa300	-0.020829678
211	0xbc43a5cc	-0.0119413845
212	0xbc787ee0	-0.015166968
213	0xbc097088	-0.008388646
214	0xbbdaf89d	-0.006682469
215	0x3b780469	0.0037844426
216	0xbbca9643	-0.0061824634
217	0x3cec6fb3	0.028861856
218	0xbc1396bc	-0.009008106
219	0x3b81d08b	0.003961628
220	0xbcf93a83	-0.030423408
221	0xbc2cd689	-0.010549196
222	0xbc836eec	-0.016044103
223	0xbc985601	-0.018595697
224	0xbcd3a2fe	-0.025834557
225	0xbcc60eea	-0.024177033
226	0xbd21f22b	-0.03953759
227	0xbce6f6e8	-0.028193906
228	0x3d063158	0.0327619
229	0xbcd5794e	-0.02605882
230	0x3ccba32f	0.024858085
231	0x3bdd683b	0.00675681
232	0xbba0a3a3	-0.0049023195
233	0x3cdffcb4	0.027342178
234	0x3c4304df	0.011903017
235	0xbc0c2c5c	-0.008555498
236	0xbcea544f	-0.028604655
237	0x3cabae58	0.020957157
238	0x3d2fe24e	0.04294043
239	0xbc5e01bd	-0.013550219
240	0x3c4c46b1	0.012468026
241	0x3cd43679	0.02590488
242	0xbb2caeca	-0.00263493
243	0x3ce25dbe	0.02763259
244	0x3cec047c	0.028810732
245	0x3da33cd3	0.07970586
246	0xbc1aa4af	-0.009438678
247	0x3cb78350	0.022401482
248	0xbcbcb99b	-0.023037722
249	0x3ce89d32	0.028395269
250	0xbcc088fd	-0.023502821
251	0xbcb16072	-0.021652434
252	0x3c99525b	0.018716028
253	0xbcb2439f	-0.02176076
254	0x3d0a0e2a	0.033704914
255	0xbbbf1615	-0.00583149

bn.weight f4 [128]
0	0x3f045a8f	0.5170068
1	0x3ebac2f2	0.36476856
2	0x3e9b2b39	0.30306414
3	0x3ee054e0	0.43814754
4	0x3e9b0c1c	0.30282676
5	0x3f0473f7	0.5173945
6	0x3f032f75	0.5124429
7	0x3ec0a5db	0.37626538
8	0x3ef64a7b	0.481037
9	0x3ec1bc57	0.37839004
10	0x3ed75366	0.42055815
11	0x3ec19f09	0.37816647
12	0x3e2326da	0.1593279
13	0x3df520ec	0.1196917
14	0x3e928ebb	0.2862452
15	0x3e87620a	0.26441985
16	0x3ee3c659	0.44487265
17	0x3dc05f9f	0.09393238
18	0x3e86be81	0.26317218
19	0x3f0ed9cb	0.55801076
20	0x3e5e7956	0.21725973
21	0x3e4bc4db	0.19899313
22	0x3e2826b5	0.16421016
23	0x3eb43680	0.3519783
24	0x3e14582d	0.14486761
25	0x3f0d90c8	0.55299044
26	0x3e089604	0.13338476
27	0x3e68e322	0.22742894
28	0x3e2e8d5d	0.17046113
29	0x3ef381eb	0.47560057
30	0x3ee5ffdc	0.44921768
31	0x3f0598d7	0.5218634
32	0x3e72696c	0.23673028
33	0x3e38fad9	0.18064441
34	0x3e5b27ee	0.2140195
35	0x3e914e3c	0.2838
36	0x3e9456a8	0.28972363
37	0x3ebcc974	0.36872447
38	0x3f11b8cb	0.56922597
39	0x3e6a4026	0.22876033
40	0x3f09f2f6	0.53886354
41	0x3f2a9879	0.66638905
42	0x3f1fd35f	0.624319
43	0x3f152257	0.58255523
44	0x3e9b1753	0.30291232
45	0x3e85ca47	0.26130888
46	0x3ea7a0f1	0.32739976
47	0x3ea54b46	0.32283992
48	0x3f16680c	0.5875251
49	0x3e5f7e09	0.21825422
50	0x3e7815e1	0.24227096
51	0x3e4fe8b9	0.2030362
52	0x3e8cfaa9	0.2753499
53	0x3e82c167	0.2553818
54	0x3dc67daf	0.09691941
55	0x3e6a55c6	0.22884282
56	0x3f230634	0.6368134
57	0x3e33d952	0.1756337
58	0x3e11ba3a	0.14231196
59	0x3ec04a79	0.37556818
60	0x3ecac4d3	0.3960329
61	0x3e8cf12e	0.27527755
62	0x3eaa64a7	0.33279917
63	0x3e9fe857	0.3123195
64	0x3e9bad9d	0.30405894
65	0x3e493691	0.19649722
66	0x3e640433	0.22267227
67	0x3e28d433	0.16487198
68	0x3e04f27b	0.12983124
69	0x3e66cc96	0.22538981
70	0x3ea7664c	0.32695234
71	0x3da276c8	0.07932812
72	0x3f0c6bf7	0.5485224
73	0x3eeedfa6	0.46655005
74	0x3e9e8e30	0.30967855
75	0x3eed6ae5	0.46370617
76	0x3e37f82a	0.17965761
77	0x3e43d257	0.19123207
78	0x3ea51926	0.3224575
79	0x3ea50a80	0.32234573
80	0x3f179cea	0.59223807
81	0x3eb8aa2b	0.36067328
82	0x3e7e5e6f	0.24840711
83	0x3e903cb9	0.28171328
84	0x3e22d5b8	0.1590184
85	0x3ec13320	0.37734318
86	0x3ed1c7f3	0.40972862
87	0x3e85aaa0	0.2610674
88	0x3e825729	0.25457123
89	0x3f185427	0.59503406
90	0x3e6a6db9	0.22893418
91	0x3f23dce9	0.6400896
92	0x3e272eae	0.163264
93	0x3e439663	0.19100337
94	0x3e729227	0.23688565
95	0x3e5046dc	0.2033953
96	0x3e7ee350	0.248914
97	0x3e916318	0.28395915
98	0x3ee79aac	0.45235193
99	0x3f008fd6	0.50219476
100	0x3e43deb8	0.19127929
101	0x3de39753	0.11112847
102	0x3f038208	0.51370287
103	0x3e69c703	0.22829823
104	0x3f0746e5	0.5284255
105	0x3e8d795e	0.27631658
106	0x3ec05eca	0.37572318
107	0x3ed852b5	0.422506
108	0x3e784b55	0.24247487
109	0x3f0de35b	0.5542504
110	0x3e86f2d5	0.2635714
111	0x3ebd0b54	0.36922705
112	0x3f0f443d	0.559635
113	0x3e9c6c6f	0.30551478
114	0x3edcb025	0.43103138
115	0x3ef4556b	0.4772142
116	0x3f068e1d	0.525606
117	0x3e817927	0.25287744
118	0x3f25ecde	0.64814556
119	0x3e61c9b6	0.22049603
120	0x3f273281	0.6531144
121	0x3eb3e17a	0.35132962
122	0x3e80297a	0.25031644
123	0x3f0fdefc	0.5619962
124	0x3e3b2309	0.18275084
125	0x3e0b5460	0.13606405
126	0x3e62d98a	0.22153297
127	0x3e91569f	0.283864

bn.bias f4 [128]
0	0xbf16a046	-0.5883831
1	0xbee57498	-0.44815516
2	0xbe8bd2b2	-0.27309185
3	0xbf004052	-0.50098145
4	0xbe833b38	-0.25631118
5	0xbf132bb3	-0.57488555
6	0xbedc61b0	-0.4304328
7	0xb9835974	-0.00025052915
8	0xbef635d6	-0.4808795
9	0xbf290da4	-0.6603644
10	0xbe87f2f6	-0.26552552
11	0xbeb397db	-0.35076794
12	0xbdfe0c33	-0.124046706
13	0xbcb986e2	-0.022647325
14	0xbe02444d	-0.12721367
15	0xbe1da397	-0.15394436
16	0xbf284146	-0.657246
17	0x3e09e273	0.1346529
18	0xbe8be6fe	-0.2732467
19	0xbf39770f	-0.72447294
20	0xbdbb50eb	-0.09146293
21	0xbbf6c467	-0.007530737
22	0x3e69297d	0.22769733
23	0xbe771a2f	-0.24131082
24	0xbd8dabc8	-0.0691753
25	0xbf1b3b30	-0.6063719
26	0xbc41717c	-0.011806842
27	0xbd81f4b7	-0.06345504
28	0x3dc93f5b	0.09826537
29	0xbf440c1f	-0.76580995
30	0xbf33e9e7	-0.7027878
31	0xbef2b4a2	-0.47403437
32	0xbe1460a8	-0.14489996
33	0x3d867f33	0.0656723
34	0xbdc152f3	-0.094396494
35	0xbecdd4dd	-0.40201464
36	0xbe14cb9e	-0.14530799
37	0xbda784df	-0.0817964
38	0xbf21701f	-0.6306171
39	0xbdc411e6	-0.09573726
40	0xbf55df52	-0.83543885
41	0xbf18e72b	-0.59727734
42	0xbf72adea	-0.9479662
43	0xbf8aaff5	-1.0834948
44	0xbe5691da	-0.20954075
45	0xbe5b7fce	-0.21435472
46	0xbe81acc0	-0.2532711
47	0xbe875c65	-0.2643768
48	0xbf17f30d	-0.5935524
49	0xbe436a2f	-0.19083475
50	0xbe65f122	-0.22455266
51	0xbe839caa	-0.25705463
52	0xbce79e16	-0.028273623
53	0xbe61ab3a	-0.22037974
54	0x3d2a353f	0.041554686
55	0x3d0ed7f1	0.034873907
56	0xbf72ca23	-0.94839686
57	0xbd576799	-0.052589033
58	0xbd486250	-0.048921883
59	0xbf2ece22	-0.68283284
60	0xbeb9494e	-0.3618874
61	0xbdbd4c02	-0.09243013
62	0xbf00f5d7	-0.5037512
63	0xbebc9287	-0.36830541
64	0xbd8e06be	-0.0693488
65	0x3c3d9e1c	0.011573341
66	0x3d32ae2e	0.043623142
67	0xbe513451	-0.20430113
68	0x3c7d924d	0.015476775
69	0xbd78322e	-0.06059473
70	0xbd6685db	-0.05628
71	0x3d19ebf1	0.037578527
72	0xbf392d61	-0.7233487
73	0xbf123eb8	-0.5712695
74	0xbe517092	-0.20453098
75	0xbf438a0a	-0.76382506
76	0xbdc01f6c	-0.09380993
77	0xbd52612b	-0.051362198
78	0xbeb20b24	-0.34774125
79	0x3d46d028	0.048538357
80	0xbf3d6caa	-0.73993933
81	0xbf0f89b4	-0.56069493
82	0xbed187cd	-0.4092392
83	0xbe95a34f	-0.29226157
84	0xbda586cf	-0.08082353
85	0xbeeaec87	-0.4588358
86	0xbeeaaf8a	-0.4583705
87	0xbe3fa736	-0.1871613
88	0x3deb87e7	0.11500531
89	0xbf1ca1b7	-0.6118426
90	0x3de98912	0.11403097
91	0xbf5a15c1	-0.85189444
92	0xbdbb2301	-0.09137536
93	0xbe0a1e8b	-0.13488214
94	0xbdeb344b	-0.114845835
95	0xbbc4cf0f	-0.0060061286
96	0xbe827a54	-0.25483954
97	0xbebabea9	-0.36473587
98	0xbf0be74e	-0.5464982
99	0xbf7620aa	-0.9614359
100	0xbe916f41	-0.28405192
101	0xbcd029f9	-0.02541064
102	0xbf348579	-0.70516163
103	0xbe49ffd6	-0.197265
104	0xbf69a4a6	-0.9126686
105	0xbd8d5c3a	-0.069023564
106	0xbf35a501	-0.709549
107	0xbf3a3b4d	-0.72746736
108	0xbb1ee6fc	-0.0024246564
109	0xbf1146af	-0.5674848
110	0x3c15018c	0.009094607
111	0xbee41f48	-0.44555116
112	0xbf16a710	-0.5884867
113	0xbd9244be	-0.07142018
114	0xbe8d3809	-0.27581814
115	0xbf630f2c	-0.88695025
116	0xbf3a10ea	-0.7268206
117	0xbeae6275	-0.34059492
118	0xbf5010f2	-0.81275856
119	0xbea720a0	-0.32642078
120	0xbf601e02	-0.8754579
121	0xbebea701	-0.3723679
122	0xbea726a9	-0.32646683
123	0xbf86c7a4	-1.0529675
124	0xbe108fe3	-0.14117388
125	0xbd893b1a	-0.06700726
126	0xbe8155df	-0.25260827
127	0xbddf4a80	-0.109028816

bn.running_mean f4 [128]
0	0xc09e3c3b	-4.9448524
1	0xc1188ea1	-9.5348215
2	0x40a876a3	5.264482
3	0xc132802d	-11.156293
4	0x3f6622df	0.8989696
5	0xc077a5f7	-3.8695047
6	0xc083083b	-4.0947547
7	0xbd95b603	-0.073101066
8	0xbf0b52a6	-0.54422987
9	0xc0a1aaeb	-5.052114
10	0xc0ab7a0f	-5.3586497
11	0xc03a4c88	-2.910921
12	0xbfff7d28	-1.996007
13	0x40cda886	6.4268217
14	0x3fcc5692	1.5963919
15	0x40576653	3.3656204
16	0xc02ba120	-2.6817093
17	0x3fdb8f53	1.7153114
18	0xc0acd9cc	-5.4015865
19	0xbfca982c	-1.5827689
20	0xbcde9f04	-0.027175434
21	0xc000f153	-2.0147293
22	0x3f937efb	1.1523126
23	0xc027a02b	-2.6191509
24	0xc04b0a7e	-3.1725154
25	0x400a5c4d	2.1618836
26	0x3e57f7ea	0.21090665
27	0x3ff96b80	1.9485931
28	0x40974097	4.7266345
29	0x3fb7be92	1.4355032
30	0x407ae55a	3.9202485
31	0xbfe54fcc	-1.7914977
32	0x40b66f46	5.701083
33	0xc1111ab8	-9.069023
34	0x407c045f	3.9377668
35	0xc0c9ae46	-6.3025236
36	0x3e16085e	0.1465163
37	0xbfc4bb56	-1.536967
38	0xc0d9288e	-6.7862005
39	0xc0d0682a	-6.5127153
40	0xc02845fe	-2.629272
41	0x3d1ee91a	0.03879652
42	0x40165eac	2.3495283
43	0xc0f40854	-7.6260166
44	0xc0ca9e59	-6.3318295
45	0xbf6afec8	-0.91795015
46	0x3daff72a	0.08592065
47	0xc04f9a91	-3.243809
48	0x409f1413	4.9712005
49	0xc0fffda0	-7.99971
50	0x3faa151a	1.328769
51	0xc1037b89	-8.21766
52	0x3c8a4e2f	0.016882984
53	0xc056143b	-3.3449848
54	0x40e777c6	7.233371
55	0xbfffd39c	-1.9986453
56	0xc0baba13	-5.835214
57	0xc0510170	-3.2657127
58	0xc1055b13	-8.334735
59	0x4113d97c	9.240597
60	0x4160a529	14.040322
61	0xc0492377	-3.1427896
62	0xc1428d93	-12.159564
63	0xbeaaf4f7	-0.33390018
64	0x403589f4	2.836545
65	0x4062721d	3.538215
66	0x400fd173	2.2471588
67	0x404ebee4	3.230401
68	0x40a070fc	5.013792
69	0xc04ef7c3	-3.2338722
70	0x3f4fb899	0.8114105
71	0xc03def2f	-2.9677236
72	0xc0d48557	-6.641277
73	0xbdc353e2	-0.09537484
74	0x3fdfb12d	1.7475945
75	0xbe7e1934	-0.24814302
76	0xc0cc01c4	-6.3752155
77	0xbf0d0519	-0.55085903
78	0x403f0ebf	2.985275
79	0x4014c6df	2.3246381
80	0x3f5e5f1d	0.8686388
81	0xc0868d41	-4.204743
82	0xc1351547	-11.317695
83	0x40a0de92	5.027169
84	0xc11a688f	-9.650527
85	0x40272fab	2.6122844
86	0xc0e7f5ca	-7.2487535
87	0xc01dc100	-2.4649048
88	0x402c8034	2.695325
89	0xc0025020	-2.0361404
90	0xbf0ee27c	-0.5581434
91	0x3f65ce54	0.89767957
92	0x407e99b6	3.9781318
93	0xc004951e	-2.0716014
94	0xbff51d55	-1.9149576
95	0xc0711f61	-3.7675402
96	0x40920e64	4.5642567
97	0xbfae8513	-1.3634361
98	0x3d104d86	0.035230182
99	0xc10b2c26	-8.698278
100	0x3f21c1bf	0.6318626
101	0x3eef49bf	0.4673595
102	0x40285a76	2.6305213
103	0xc136b137	-11.418265
104	0x3fe3ac2e	1.778692
105	0x4042bbd0	3.0427132
106	0x40558941	3.3365023
107	0xc0d51371	-6.658623
108	0x40b45f3a	5.6366243
109	0xc0808fd6	-4.017558
110	0xbe9d619d	-0.30738536
111	0xc104206d	-8.257916
112	0xbfc0b712	-1.5055869
113	0x3f9bfccc	1.2186522
114	0x402b1720	2.6732864
115	0x4076d283	3.8565986
116	0xbfd09109	-1.6294261
117	0x400508d7	2.0786645
118	0xbfd473f2	-1.6597884
119	0xc0b66c86	-5.7007475
120	0xc06bda1f	-3.685188
121	0xc0f935b9	-7.787808
122	0x400141a7	2.019632
123	0xc0a77208	-5.23267
124	0xbfa94725	-1.3224837
125	0x40930d04	4.595339
126	0xc0bfff08	-5.9998817
127	0xbf8c79c3	-1.0974659

bn.running_var f4 [128]
0	0x42811167	64.53399
1	0x42fb0f98	125.53046
2	0x43038ed0	131.55786
3	0x423b6eea	46.858315
4	0x432bb6ac	171.71356
5	0x42885c11	68.17982
6	0x41c159ce	24.16885
7	0x440a998c	554.3992
8	0x42d7083c	107.51608
9	0x42930488	73.50885
10	0x42d6f33b	107.47506
11	0x42b2afd4	89.343414
12	0x421e8e4d	39.638966
13	0x42ec83d3	118.25747
14	0x40e3834c	7.1097775
15	0x436e5f50	238.37231
16	0x413f036e	11.938337
17	0x41c0bc1e	24.091854
18	0x429f1c0e	79.554794
19	0x42df51f5	111.66007
20	0x424ace2b	50.701336
21	0x415c20e8	13.758034
22	0x417d09c9	15.814889
23	0x4258c4e4	54.192276
24	0x42212870	40.28949
25	0x42cf37d5	103.60905
26	0x41e797a4	28.949043
27	0x419fa98a	19.957783
28	0x4246af94	49.671463
29	0x42bbf1f8	93.972595
30	0x42f726e7	123.57598
31	0x428c6c0e	70.211044
32	0x425cd376	55.206505
33	0x4325907a	165.56436
34	0x428475c0	66.22998
35	0x430286cd	130.52657
36	0x41fa328c	31.274681
37	0x4237f92f	45.993343
38	0x42cf4521	103.63502
39	0x42bc59b8	94.17523
40	0x42272fe9	41.796787
41	0x42bdc794	94.8898
42	0x426e748f	59.613827
43	0x42f9dcc2	124.93117
44	0x42b72ea0	91.591064
45	0x43055534	133.33282
46	0x43133b6a	147.23209
47	0x41ca3a68	25.278519
48	0x4283dbe0	65.92944
49	0x426beb30	58.979675
50	0x41e82666	29.01875
51	0x41a2b097	20.336226
52	0x40cde46b	6.434133
53	0x41a82dc5	21.022348
54	0x42b2405a	89.12569
55	0x41df0e03	27.881842
56	0x428f5b94	71.67886
57	0x41f1b3e3	30.212835
58	0x422ed9ee	43.712822
59	0x4218e41f	38.222775
60	0x44267431	665.8155
61	0x41cbad0e	25.4595
62	0x429dd09f	78.90746
63	0x40f31238	7.595974
64	0x42a68d6e	83.27623
65	0x41994726	19.15974
66	0x413db20d	11.855969
67	0x41d8d46c	27.103722
68	0x4161192a	14.068644
69	0x416d69b0	14.838303
70	0x428d677e	70.70213
71	0x41d7e292	26.98563
72	0x42838104	65.75198
73	0x42ed417e	118.627914
74	0x408c9a76	4.393855
75	0x422588ad	41.383472
76	0x428735fb	67.60543
77	0x429dde4f	78.9342
78	0x42afc06b	87.87582
79	0x414d7d89	12.843148
80	0x42ed394d	118.611916
81	0x427ab2a8	62.67447
82	0x421578f2	37.36811
83	0x4204401c	33.062607
84	0x420b3c1f	34.808712
85	0x42cd7555	102.729164
86	0x42c7452b	99.63509
87	0x41c93179	25.149157
88	0x41faae4b	31.335104
89	0x425b7f1f	54.87414
90	0x42024626	32.568504
91	0x425cbc9b	55.184185
92	0x427929a4	62.290665
93	0x426abb2c	58.682785
94	0x4174c324	15.297642
95	0x421f3277	39.799282
96	0x42174528	37.817535
97	0x41b8d653	23.10465
98	0x42e6c1f8	115.378845
99	0x423aaa71	46.666447
100	0x42723451	60.55109
101	0x430a86ec	138.52704
102	0x4217997b	37.899883
103	0x42315bab	44.33952
104	0x4318776e	152.46652
105	0x41f00ff2	30.007786
106	0x4287c830	67.89099
107	0x429e8b6d	79.272316
108	0x431b1bdc	155.10883
109	0x42826000	65.1875
110	0x414fa093	12.976703
111	0x43abafe2	343.37408
112	0x420f27af	35.788754
113	0x423718b7	45.774136
114	0x409b7bb6	4.8588514
115	0x41feff2d	31.874598
116	0x432d0c9f	173.0493
117	0x425d596b	55.337322
118	0x42f3381b	121.60958
119	0x423a58a1	46.58655
120	0x424683d6	49.628746
121	0x429a9d4c	77.30722
122	0x414b8e46	12.722235
123	0x425fff95	55.99959
124	0x415a763b	13.653865
125	0x422771ac	41.861008
126	0x42860065	67.00077
127	0x4267deb1	57.967472
